program(1.0)
[buildInfo = dict<tensor<string, []>, tensor<string, []>>({{"coremlc-component-MIL", "3404.16.1"}, {"coremlc-version", "3404.24.1"}, {"coremltools-component-torch", "2.7.0"}, {"coremltools-source-dialect", "TorchScript"}, {"coremltools-version", "8.2"}})]
{
    func main<ios15>(tensor<fp32, [2, 1024, 216]> magnitude) {
            tensor<int32, [1]> var_18_axes_0 = const()[name = tensor<string, []>("op_18_axes_0"), val = tensor<int32, [1]>([-1])];
            tensor<string, []> stft_mag_1_to_fp16_dtype_0 = const()[name = tensor<string, []>("stft_mag_1_to_fp16_dtype_0"), val = tensor<string, []>("fp16")];
            tensor<fp16, [2, 1024, 216]> stft_mag_1_to_fp16 = cast(dtype = stft_mag_1_to_fp16_dtype_0, x = magnitude)[name = tensor<string, []>("cast_12")];
            tensor<fp16, [2, 1024, 216, 1]> var_18_cast_fp16 = expand_dims(axes = var_18_axes_0, x = stft_mag_1_to_fp16)[name = tensor<string, []>("op_18_cast_fp16")];
            tensor<int32, [4]> var_23 = const()[name = tensor<string, []>("op_23"), val = tensor<int32, [4]>([3, 0, 1, 2])];
            tensor<int32, [8]> tensor_pad_0 = const()[name = tensor<string, []>("tensor_pad_0"), val = tensor<int32, [8]>([0, 0, 0, 0, 0, 0, 0, 296])];
            tensor<string, []> tensor_mode_0 = const()[name = tensor<string, []>("tensor_mode_0"), val = tensor<string, []>("constant")];
            tensor<fp16, []> const_2_to_fp16 = const()[name = tensor<string, []>("const_2_to_fp16"), val = tensor<fp16, []>(0x0p+0)];
            tensor<fp16, [1, 2, 1024, 216]> tensor_1_cast_fp16 = transpose(perm = var_23, x = var_18_cast_fp16)[name = tensor<string, []>("transpose_5")];
            tensor<fp16, [1, 2, 1024, 512]> tensor_cast_fp16 = pad(constant_val = const_2_to_fp16, mode = tensor_mode_0, pad = tensor_pad_0, x = tensor_1_cast_fp16)[name = tensor<string, []>("tensor_cast_fp16")];
            tensor<int32, []> var_42 = const()[name = tensor<string, []>("op_42"), val = tensor<int32, []>(0)];
            tensor<bool, []> stft_mag_interleave_0 = const()[name = tensor<string, []>("stft_mag_interleave_0"), val = tensor<bool, []>(false)];
            tensor<fp16, [1, 2, 1024, 512]> stft_mag_cast_fp16 = concat(axis = var_42, interleave = stft_mag_interleave_0, values = tensor_cast_fp16)[name = tensor<string, []>("stft_mag_cast_fp16")];
            tensor<int32, [4]> input_1_perm_0 = const()[name = tensor<string, []>("input_1_perm_0"), val = tensor<int32, [4]>([0, 1, 3, 2])];
            tensor<int32, []> var_57 = const()[name = tensor<string, []>("op_57"), val = tensor<int32, []>(1)];
            tensor<int32, [8]> input_3_pad_0 = const()[name = tensor<string, []>("input_3_pad_0"), val = tensor<int32, [8]>([0, 0, 0, 0, 1, 2, 1, 2])];
            tensor<string, []> input_3_mode_0 = const()[name = tensor<string, []>("input_3_mode_0"), val = tensor<string, []>("constant")];
            tensor<fp16, []> const_5_to_fp16 = const()[name = tensor<string, []>("const_5_to_fp16"), val = tensor<fp16, []>(0x0p+0)];
            tensor<fp16, [1, 2, 512, 1024]> input_1_cast_fp16 = transpose(perm = input_1_perm_0, x = stft_mag_cast_fp16)[name = tensor<string, []>("transpose_4")];
            tensor<fp16, [1, 2, 515, 1027]> input_3_cast_fp16 = pad(constant_val = const_5_to_fp16, mode = input_3_mode_0, pad = input_3_pad_0, x = input_1_cast_fp16)[name = tensor<string, []>("input_3_cast_fp16")];
            tensor<string, []> input_5_pad_type_0 = const()[name = tensor<string, []>("input_5_pad_type_0"), val = tensor<string, []>("valid")];
            tensor<int32, [2]> input_5_strides_0 = const()[name = tensor<string, []>("input_5_strides_0"), val = tensor<int32, [2]>([2, 2])];
            tensor<int32, [4]> input_5_pad_0 = const()[name = tensor<string, []>("input_5_pad_0"), val = tensor<int32, [4]>([0, 0, 0, 0])];
            tensor<int32, [2]> input_5_dilations_0 = const()[name = tensor<string, []>("input_5_dilations_0"), val = tensor<int32, [2]>([1, 1])];
            tensor<int32, []> input_5_groups_0 = const()[name = tensor<string, []>("input_5_groups_0"), val = tensor<int32, []>(1)];
            tensor<fp16, [16, 2, 5, 5]> instruments_0_down1_conv_1_weight_to_fp16 = const()[name = tensor<string, []>("instruments_0_down1_conv_1_weight_to_fp16"), val = tensor<fp16, [16, 2, 5, 5]>(BLOBFILE(path = tensor<string, []>("@model_path/weights/weight.bin"), offset = tensor<uint64, []>(64)))];
            tensor<fp16, [16]> instruments_0_down1_conv_1_bias_to_fp16 = const()[name = tensor<string, []>("instruments_0_down1_conv_1_bias_to_fp16"), val = tensor<fp16, [16]>(BLOBFILE(path = tensor<string, []>("@model_path/weights/weight.bin"), offset = tensor<uint64, []>(1728)))];
            tensor<fp16, [1, 16, 256, 512]> input_5_cast_fp16 = conv(bias = instruments_0_down1_conv_1_bias_to_fp16, dilations = input_5_dilations_0, groups = input_5_groups_0, pad = input_5_pad_0, pad_type = input_5_pad_type_0, strides = input_5_strides_0, weight = instruments_0_down1_conv_1_weight_to_fp16, x = input_3_cast_fp16)[name = tensor<string, []>("input_5_cast_fp16")];
            tensor<fp16, [16]> instruments_0_down1_act_0_running_mean_to_fp16 = const()[name = tensor<string, []>("instruments_0_down1_act_0_running_mean_to_fp16"), val = tensor<fp16, [16]>(BLOBFILE(path = tensor<string, []>("@model_path/weights/weight.bin"), offset = tensor<uint64, []>(1856)))];
            tensor<fp16, [16]> instruments_0_down1_act_0_running_var_to_fp16 = const()[name = tensor<string, []>("instruments_0_down1_act_0_running_var_to_fp16"), val = tensor<fp16, [16]>(BLOBFILE(path = tensor<string, []>("@model_path/weights/weight.bin"), offset = tensor<uint64, []>(1984)))];
            tensor<fp16, [16]> instruments_0_down1_act_0_weight_to_fp16 = const()[name = tensor<string, []>("instruments_0_down1_act_0_weight_to_fp16"), val = tensor<fp16, [16]>(BLOBFILE(path = tensor<string, []>("@model_path/weights/weight.bin"), offset = tensor<uint64, []>(2112)))];
            tensor<fp16, [16]> instruments_0_down1_act_0_bias_to_fp16 = const()[name = tensor<string, []>("instruments_0_down1_act_0_bias_to_fp16"), val = tensor<fp16, [16]>(BLOBFILE(path = tensor<string, []>("@model_path/weights/weight.bin"), offset = tensor<uint64, []>(2240)))];
            tensor<fp16, []> var_51_to_fp16 = const()[name = tensor<string, []>("op_51_to_fp16"), val = tensor<fp16, []>(0x1.064p-10)];
            tensor<fp16, [1, 16, 256, 512]> input_7_cast_fp16 = batch_norm(beta = instruments_0_down1_act_0_bias_to_fp16, epsilon = var_51_to_fp16, gamma = instruments_0_down1_act_0_weight_to_fp16, mean = instruments_0_down1_act_0_running_mean_to_fp16, variance = instruments_0_down1_act_0_running_var_to_fp16, x = input_5_cast_fp16)[name = tensor<string, []>("input_7_cast_fp16")];
            tensor<fp16, []> var_53_to_fp16 = const()[name = tensor<string, []>("op_53_to_fp16"), val = tensor<fp16, []>(0x1p+0)];
            tensor<fp16, [1, 16, 256, 512]> input_9_cast_fp16 = elu(alpha = var_53_to_fp16, x = input_7_cast_fp16)[name = tensor<string, []>("input_9_cast_fp16")];
            tensor<int32, [8]> input_11_pad_0 = const()[name = tensor<string, []>("input_11_pad_0"), val = tensor<int32, [8]>([0, 0, 0, 0, 1, 2, 1, 2])];
            tensor<string, []> input_11_mode_0 = const()[name = tensor<string, []>("input_11_mode_0"), val = tensor<string, []>("constant")];
            tensor<fp16, []> const_6_to_fp16 = const()[name = tensor<string, []>("const_6_to_fp16"), val = tensor<fp16, []>(0x0p+0)];
            tensor<fp16, [1, 16, 259, 515]> input_11_cast_fp16 = pad(constant_val = const_6_to_fp16, mode = input_11_mode_0, pad = input_11_pad_0, x = input_9_cast_fp16)[name = tensor<string, []>("input_11_cast_fp16")];
            tensor<string, []> input_13_pad_type_0 = const()[name = tensor<string, []>("input_13_pad_type_0"), val = tensor<string, []>("valid")];
            tensor<int32, [2]> input_13_strides_0 = const()[name = tensor<string, []>("input_13_strides_0"), val = tensor<int32, [2]>([2, 2])];
            tensor<int32, [4]> input_13_pad_0 = const()[name = tensor<string, []>("input_13_pad_0"), val = tensor<int32, [4]>([0, 0, 0, 0])];
            tensor<int32, [2]> input_13_dilations_0 = const()[name = tensor<string, []>("input_13_dilations_0"), val = tensor<int32, [2]>([1, 1])];
            tensor<int32, []> input_13_groups_0 = const()[name = tensor<string, []>("input_13_groups_0"), val = tensor<int32, []>(1)];
            tensor<fp16, [32, 16, 5, 5]> instruments_0_down2_conv_1_weight_to_fp16 = const()[name = tensor<string, []>("instruments_0_down2_conv_1_weight_to_fp16"), val = tensor<fp16, [32, 16, 5, 5]>(BLOBFILE(path = tensor<string, []>("@model_path/weights/weight.bin"), offset = tensor<uint64, []>(2368)))];
            tensor<fp16, [32]> instruments_0_down2_conv_1_bias_to_fp16 = const()[name = tensor<string, []>("instruments_0_down2_conv_1_bias_to_fp16"), val = tensor<fp16, [32]>(BLOBFILE(path = tensor<string, []>("@model_path/weights/weight.bin"), offset = tensor<uint64, []>(28032)))];
            tensor<fp16, [1, 32, 128, 256]> input_13_cast_fp16 = conv(bias = instruments_0_down2_conv_1_bias_to_fp16, dilations = input_13_dilations_0, groups = input_13_groups_0, pad = input_13_pad_0, pad_type = input_13_pad_type_0, strides = input_13_strides_0, weight = instruments_0_down2_conv_1_weight_to_fp16, x = input_11_cast_fp16)[name = tensor<string, []>("input_13_cast_fp16")];
            tensor<fp16, [32]> instruments_0_down2_act_0_running_mean_to_fp16 = const()[name = tensor<string, []>("instruments_0_down2_act_0_running_mean_to_fp16"), val = tensor<fp16, [32]>(BLOBFILE(path = tensor<string, []>("@model_path/weights/weight.bin"), offset = tensor<uint64, []>(28160)))];
            tensor<fp16, [32]> instruments_0_down2_act_0_running_var_to_fp16 = const()[name = tensor<string, []>("instruments_0_down2_act_0_running_var_to_fp16"), val = tensor<fp16, [32]>(BLOBFILE(path = tensor<string, []>("@model_path/weights/weight.bin"), offset = tensor<uint64, []>(28288)))];
            tensor<fp16, [32]> instruments_0_down2_act_0_weight_to_fp16 = const()[name = tensor<string, []>("instruments_0_down2_act_0_weight_to_fp16"), val = tensor<fp16, [32]>(BLOBFILE(path = tensor<string, []>("@model_path/weights/weight.bin"), offset = tensor<uint64, []>(28416)))];
            tensor<fp16, [32]> instruments_0_down2_act_0_bias_to_fp16 = const()[name = tensor<string, []>("instruments_0_down2_act_0_bias_to_fp16"), val = tensor<fp16, [32]>(BLOBFILE(path = tensor<string, []>("@model_path/weights/weight.bin"), offset = tensor<uint64, []>(28544)))];
            tensor<fp16, [1, 32, 128, 256]> input_15_cast_fp16 = batch_norm(beta = instruments_0_down2_act_0_bias_to_fp16, epsilon = var_51_to_fp16, gamma = instruments_0_down2_act_0_weight_to_fp16, mean = instruments_0_down2_act_0_running_mean_to_fp16, variance = instruments_0_down2_act_0_running_var_to_fp16, x = input_13_cast_fp16)[name = tensor<string, []>("input_15_cast_fp16")];
            tensor<fp16, [1, 32, 128, 256]> input_17_cast_fp16 = elu(alpha = var_53_to_fp16, x = input_15_cast_fp16)[name = tensor<string, []>("input_17_cast_fp16")];
            tensor<int32, [8]> input_19_pad_0 = const()[name = tensor<string, []>("input_19_pad_0"), val = tensor<int32, [8]>([0, 0, 0, 0, 1, 2, 1, 2])];
            tensor<string, []> input_19_mode_0 = const()[name = tensor<string, []>("input_19_mode_0"), val = tensor<string, []>("constant")];
            tensor<fp16, []> const_7_to_fp16 = const()[name = tensor<string, []>("const_7_to_fp16"), val = tensor<fp16, []>(0x0p+0)];
            tensor<fp16, [1, 32, 131, 259]> input_19_cast_fp16 = pad(constant_val = const_7_to_fp16, mode = input_19_mode_0, pad = input_19_pad_0, x = input_17_cast_fp16)[name = tensor<string, []>("input_19_cast_fp16")];
            tensor<string, []> input_21_pad_type_0 = const()[name = tensor<string, []>("input_21_pad_type_0"), val = tensor<string, []>("valid")];
            tensor<int32, [2]> input_21_strides_0 = const()[name = tensor<string, []>("input_21_strides_0"), val = tensor<int32, [2]>([2, 2])];
            tensor<int32, [4]> input_21_pad_0 = const()[name = tensor<string, []>("input_21_pad_0"), val = tensor<int32, [4]>([0, 0, 0, 0])];
            tensor<int32, [2]> input_21_dilations_0 = const()[name = tensor<string, []>("input_21_dilations_0"), val = tensor<int32, [2]>([1, 1])];
            tensor<int32, []> input_21_groups_0 = const()[name = tensor<string, []>("input_21_groups_0"), val = tensor<int32, []>(1)];
            tensor<fp16, [64, 32, 5, 5]> instruments_0_down3_conv_1_weight_to_fp16 = const()[name = tensor<string, []>("instruments_0_down3_conv_1_weight_to_fp16"), val = tensor<fp16, [64, 32, 5, 5]>(BLOBFILE(path = tensor<string, []>("@model_path/weights/weight.bin"), offset = tensor<uint64, []>(28672)))];
            tensor<fp16, [64]> instruments_0_down3_conv_1_bias_to_fp16 = const()[name = tensor<string, []>("instruments_0_down3_conv_1_bias_to_fp16"), val = tensor<fp16, [64]>(BLOBFILE(path = tensor<string, []>("@model_path/weights/weight.bin"), offset = tensor<uint64, []>(131136)))];
            tensor<fp16, [1, 64, 64, 128]> input_21_cast_fp16 = conv(bias = instruments_0_down3_conv_1_bias_to_fp16, dilations = input_21_dilations_0, groups = input_21_groups_0, pad = input_21_pad_0, pad_type = input_21_pad_type_0, strides = input_21_strides_0, weight = instruments_0_down3_conv_1_weight_to_fp16, x = input_19_cast_fp16)[name = tensor<string, []>("input_21_cast_fp16")];
            tensor<fp16, [64]> instruments_0_down3_act_0_running_mean_to_fp16 = const()[name = tensor<string, []>("instruments_0_down3_act_0_running_mean_to_fp16"), val = tensor<fp16, [64]>(BLOBFILE(path = tensor<string, []>("@model_path/weights/weight.bin"), offset = tensor<uint64, []>(131328)))];
            tensor<fp16, [64]> instruments_0_down3_act_0_running_var_to_fp16 = const()[name = tensor<string, []>("instruments_0_down3_act_0_running_var_to_fp16"), val = tensor<fp16, [64]>(BLOBFILE(path = tensor<string, []>("@model_path/weights/weight.bin"), offset = tensor<uint64, []>(131520)))];
            tensor<fp16, [64]> instruments_0_down3_act_0_weight_to_fp16 = const()[name = tensor<string, []>("instruments_0_down3_act_0_weight_to_fp16"), val = tensor<fp16, [64]>(BLOBFILE(path = tensor<string, []>("@model_path/weights/weight.bin"), offset = tensor<uint64, []>(131712)))];
            tensor<fp16, [64]> instruments_0_down3_act_0_bias_to_fp16 = const()[name = tensor<string, []>("instruments_0_down3_act_0_bias_to_fp16"), val = tensor<fp16, [64]>(BLOBFILE(path = tensor<string, []>("@model_path/weights/weight.bin"), offset = tensor<uint64, []>(131904)))];
            tensor<fp16, [1, 64, 64, 128]> input_23_cast_fp16 = batch_norm(beta = instruments_0_down3_act_0_bias_to_fp16, epsilon = var_51_to_fp16, gamma = instruments_0_down3_act_0_weight_to_fp16, mean = instruments_0_down3_act_0_running_mean_to_fp16, variance = instruments_0_down3_act_0_running_var_to_fp16, x = input_21_cast_fp16)[name = tensor<string, []>("input_23_cast_fp16")];
            tensor<fp16, [1, 64, 64, 128]> input_25_cast_fp16 = elu(alpha = var_53_to_fp16, x = input_23_cast_fp16)[name = tensor<string, []>("input_25_cast_fp16")];
            tensor<int32, [8]> input_27_pad_0 = const()[name = tensor<string, []>("input_27_pad_0"), val = tensor<int32, [8]>([0, 0, 0, 0, 1, 2, 1, 2])];
            tensor<string, []> input_27_mode_0 = const()[name = tensor<string, []>("input_27_mode_0"), val = tensor<string, []>("constant")];
            tensor<fp16, []> const_8_to_fp16 = const()[name = tensor<string, []>("const_8_to_fp16"), val = tensor<fp16, []>(0x0p+0)];
            tensor<fp16, [1, 64, 67, 131]> input_27_cast_fp16 = pad(constant_val = const_8_to_fp16, mode = input_27_mode_0, pad = input_27_pad_0, x = input_25_cast_fp16)[name = tensor<string, []>("input_27_cast_fp16")];
            tensor<string, []> input_29_pad_type_0 = const()[name = tensor<string, []>("input_29_pad_type_0"), val = tensor<string, []>("valid")];
            tensor<int32, [2]> input_29_strides_0 = const()[name = tensor<string, []>("input_29_strides_0"), val = tensor<int32, [2]>([2, 2])];
            tensor<int32, [4]> input_29_pad_0 = const()[name = tensor<string, []>("input_29_pad_0"), val = tensor<int32, [4]>([0, 0, 0, 0])];
            tensor<int32, [2]> input_29_dilations_0 = const()[name = tensor<string, []>("input_29_dilations_0"), val = tensor<int32, [2]>([1, 1])];
            tensor<int32, []> input_29_groups_0 = const()[name = tensor<string, []>("input_29_groups_0"), val = tensor<int32, []>(1)];
            tensor<fp16, [128, 64, 5, 5]> instruments_0_down4_conv_1_weight_to_fp16 = const()[name = tensor<string, []>("instruments_0_down4_conv_1_weight_to_fp16"), val = tensor<fp16, [128, 64, 5, 5]>(BLOBFILE(path = tensor<string, []>("@model_path/weights/weight.bin"), offset = tensor<uint64, []>(132096)))];
            tensor<fp16, [128]> instruments_0_down4_conv_1_bias_to_fp16 = const()[name = tensor<string, []>("instruments_0_down4_conv_1_bias_to_fp16"), val = tensor<fp16, [128]>(BLOBFILE(path = tensor<string, []>("@model_path/weights/weight.bin"), offset = tensor<uint64, []>(541760)))];
            tensor<fp16, [1, 128, 32, 64]> input_29_cast_fp16 = conv(bias = instruments_0_down4_conv_1_bias_to_fp16, dilations = input_29_dilations_0, groups = input_29_groups_0, pad = input_29_pad_0, pad_type = input_29_pad_type_0, strides = input_29_strides_0, weight = instruments_0_down4_conv_1_weight_to_fp16, x = input_27_cast_fp16)[name = tensor<string, []>("input_29_cast_fp16")];
            tensor<fp16, [128]> instruments_0_down4_act_0_running_mean_to_fp16 = const()[name = tensor<string, []>("instruments_0_down4_act_0_running_mean_to_fp16"), val = tensor<fp16, [128]>(BLOBFILE(path = tensor<string, []>("@model_path/weights/weight.bin"), offset = tensor<uint64, []>(542080)))];
            tensor<fp16, [128]> instruments_0_down4_act_0_running_var_to_fp16 = const()[name = tensor<string, []>("instruments_0_down4_act_0_running_var_to_fp16"), val = tensor<fp16, [128]>(BLOBFILE(path = tensor<string, []>("@model_path/weights/weight.bin"), offset = tensor<uint64, []>(542400)))];
            tensor<fp16, [128]> instruments_0_down4_act_0_weight_to_fp16 = const()[name = tensor<string, []>("instruments_0_down4_act_0_weight_to_fp16"), val = tensor<fp16, [128]>(BLOBFILE(path = tensor<string, []>("@model_path/weights/weight.bin"), offset = tensor<uint64, []>(542720)))];
            tensor<fp16, [128]> instruments_0_down4_act_0_bias_to_fp16 = const()[name = tensor<string, []>("instruments_0_down4_act_0_bias_to_fp16"), val = tensor<fp16, [128]>(BLOBFILE(path = tensor<string, []>("@model_path/weights/weight.bin"), offset = tensor<uint64, []>(543040)))];
            tensor<fp16, [1, 128, 32, 64]> input_31_cast_fp16 = batch_norm(beta = instruments_0_down4_act_0_bias_to_fp16, epsilon = var_51_to_fp16, gamma = instruments_0_down4_act_0_weight_to_fp16, mean = instruments_0_down4_act_0_running_mean_to_fp16, variance = instruments_0_down4_act_0_running_var_to_fp16, x = input_29_cast_fp16)[name = tensor<string, []>("input_31_cast_fp16")];
            tensor<fp16, [1, 128, 32, 64]> input_33_cast_fp16 = elu(alpha = var_53_to_fp16, x = input_31_cast_fp16)[name = tensor<string, []>("input_33_cast_fp16")];
            tensor<int32, [8]> input_35_pad_0 = const()[name = tensor<string, []>("input_35_pad_0"), val = tensor<int32, [8]>([0, 0, 0, 0, 1, 2, 1, 2])];
            tensor<string, []> input_35_mode_0 = const()[name = tensor<string, []>("input_35_mode_0"), val = tensor<string, []>("constant")];
            tensor<fp16, []> const_9_to_fp16 = const()[name = tensor<string, []>("const_9_to_fp16"), val = tensor<fp16, []>(0x0p+0)];
            tensor<fp16, [1, 128, 35, 67]> input_35_cast_fp16 = pad(constant_val = const_9_to_fp16, mode = input_35_mode_0, pad = input_35_pad_0, x = input_33_cast_fp16)[name = tensor<string, []>("input_35_cast_fp16")];
            tensor<string, []> input_37_pad_type_0 = const()[name = tensor<string, []>("input_37_pad_type_0"), val = tensor<string, []>("valid")];
            tensor<int32, [2]> input_37_strides_0 = const()[name = tensor<string, []>("input_37_strides_0"), val = tensor<int32, [2]>([2, 2])];
            tensor<int32, [4]> input_37_pad_0 = const()[name = tensor<string, []>("input_37_pad_0"), val = tensor<int32, [4]>([0, 0, 0, 0])];
            tensor<int32, [2]> input_37_dilations_0 = const()[name = tensor<string, []>("input_37_dilations_0"), val = tensor<int32, [2]>([1, 1])];
            tensor<int32, []> input_37_groups_0 = const()[name = tensor<string, []>("input_37_groups_0"), val = tensor<int32, []>(1)];
            tensor<fp16, [256, 128, 5, 5]> instruments_0_down5_conv_1_weight_to_fp16 = const()[name = tensor<string, []>("instruments_0_down5_conv_1_weight_to_fp16"), val = tensor<fp16, [256, 128, 5, 5]>(BLOBFILE(path = tensor<string, []>("@model_path/weights/weight.bin"), offset = tensor<uint64, []>(543360)))];
            tensor<fp16, [256]> instruments_0_down5_conv_1_bias_to_fp16 = const()[name = tensor<string, []>("instruments_0_down5_conv_1_bias_to_fp16"), val = tensor<fp16, [256]>(BLOBFILE(path = tensor<string, []>("@model_path/weights/weight.bin"), offset = tensor<uint64, []>(2181824)))];
            tensor<fp16, [1, 256, 16, 32]> input_37_cast_fp16 = conv(bias = instruments_0_down5_conv_1_bias_to_fp16, dilations = input_37_dilations_0, groups = input_37_groups_0, pad = input_37_pad_0, pad_type = input_37_pad_type_0, strides = input_37_strides_0, weight = instruments_0_down5_conv_1_weight_to_fp16, x = input_35_cast_fp16)[name = tensor<string, []>("input_37_cast_fp16")];
            tensor<fp16, [256]> instruments_0_down5_act_0_running_mean_to_fp16 = const()[name = tensor<string, []>("instruments_0_down5_act_0_running_mean_to_fp16"), val = tensor<fp16, [256]>(BLOBFILE(path = tensor<string, []>("@model_path/weights/weight.bin"), offset = tensor<uint64, []>(2182400)))];
            tensor<fp16, [256]> instruments_0_down5_act_0_running_var_to_fp16 = const()[name = tensor<string, []>("instruments_0_down5_act_0_running_var_to_fp16"), val = tensor<fp16, [256]>(BLOBFILE(path = tensor<string, []>("@model_path/weights/weight.bin"), offset = tensor<uint64, []>(2182976)))];
            tensor<fp16, [256]> instruments_0_down5_act_0_weight_to_fp16 = const()[name = tensor<string, []>("instruments_0_down5_act_0_weight_to_fp16"), val = tensor<fp16, [256]>(BLOBFILE(path = tensor<string, []>("@model_path/weights/weight.bin"), offset = tensor<uint64, []>(2183552)))];
            tensor<fp16, [256]> instruments_0_down5_act_0_bias_to_fp16 = const()[name = tensor<string, []>("instruments_0_down5_act_0_bias_to_fp16"), val = tensor<fp16, [256]>(BLOBFILE(path = tensor<string, []>("@model_path/weights/weight.bin"), offset = tensor<uint64, []>(2184128)))];
            tensor<fp16, [1, 256, 16, 32]> input_39_cast_fp16 = batch_norm(beta = instruments_0_down5_act_0_bias_to_fp16, epsilon = var_51_to_fp16, gamma = instruments_0_down5_act_0_weight_to_fp16, mean = instruments_0_down5_act_0_running_mean_to_fp16, variance = instruments_0_down5_act_0_running_var_to_fp16, x = input_37_cast_fp16)[name = tensor<string, []>("input_39_cast_fp16")];
            tensor<fp16, [1, 256, 16, 32]> input_41_cast_fp16 = elu(alpha = var_53_to_fp16, x = input_39_cast_fp16)[name = tensor<string, []>("input_41_cast_fp16")];
            tensor<int32, [8]> input_43_pad_0 = const()[name = tensor<string, []>("input_43_pad_0"), val = tensor<int32, [8]>([0, 0, 0, 0, 1, 2, 1, 2])];
            tensor<string, []> input_43_mode_0 = const()[name = tensor<string, []>("input_43_mode_0"), val = tensor<string, []>("constant")];
            tensor<fp16, []> const_10_to_fp16 = const()[name = tensor<string, []>("const_10_to_fp16"), val = tensor<fp16, []>(0x0p+0)];
            tensor<fp16, [1, 256, 19, 35]> input_43_cast_fp16 = pad(constant_val = const_10_to_fp16, mode = input_43_mode_0, pad = input_43_pad_0, x = input_41_cast_fp16)[name = tensor<string, []>("input_43_cast_fp16")];
            tensor<string, []> input_45_pad_type_0 = const()[name = tensor<string, []>("input_45_pad_type_0"), val = tensor<string, []>("valid")];
            tensor<int32, [2]> input_45_strides_0 = const()[name = tensor<string, []>("input_45_strides_0"), val = tensor<int32, [2]>([2, 2])];
            tensor<int32, [4]> input_45_pad_0 = const()[name = tensor<string, []>("input_45_pad_0"), val = tensor<int32, [4]>([0, 0, 0, 0])];
            tensor<int32, [2]> input_45_dilations_0 = const()[name = tensor<string, []>("input_45_dilations_0"), val = tensor<int32, [2]>([1, 1])];
            tensor<int32, []> input_45_groups_0 = const()[name = tensor<string, []>("input_45_groups_0"), val = tensor<int32, []>(1)];
            tensor<fp16, [512, 256, 5, 5]> instruments_0_down6_conv_1_weight_to_fp16 = const()[name = tensor<string, []>("instruments_0_down6_conv_1_weight_to_fp16"), val = tensor<fp16, [512, 256, 5, 5]>(BLOBFILE(path = tensor<string, []>("@model_path/weights/weight.bin"), offset = tensor<uint64, []>(2184704)))];
            tensor<fp16, [512]> instruments_0_down6_conv_1_bias_to_fp16 = const()[name = tensor<string, []>("instruments_0_down6_conv_1_bias_to_fp16"), val = tensor<fp16, [512]>(BLOBFILE(path = tensor<string, []>("@model_path/weights/weight.bin"), offset = tensor<uint64, []>(8738368)))];
            tensor<fp16, [1, 512, 8, 16]> input_45_cast_fp16 = conv(bias = instruments_0_down6_conv_1_bias_to_fp16, dilations = input_45_dilations_0, groups = input_45_groups_0, pad = input_45_pad_0, pad_type = input_45_pad_type_0, strides = input_45_strides_0, weight = instruments_0_down6_conv_1_weight_to_fp16, x = input_43_cast_fp16)[name = tensor<string, []>("input_45_cast_fp16")];
            tensor<string, []> x_1_pad_type_0 = const()[name = tensor<string, []>("x_1_pad_type_0"), val = tensor<string, []>("valid")];
            tensor<int32, [2]> x_1_strides_0 = const()[name = tensor<string, []>("x_1_strides_0"), val = tensor<int32, [2]>([2, 2])];
            tensor<int32, [4]> x_1_pad_0 = const()[name = tensor<string, []>("x_1_pad_0"), val = tensor<int32, [4]>([0, 0, 0, 0])];
            tensor<int32, [2]> x_1_dilations_0 = const()[name = tensor<string, []>("x_1_dilations_0"), val = tensor<int32, [2]>([1, 1])];
            tensor<int32, []> x_1_groups_0 = const()[name = tensor<string, []>("x_1_groups_0"), val = tensor<int32, []>(1)];
            tensor<int32, [4]> x_1_has_output_shape_output_shape_0 = const()[name = tensor<string, []>("x_1_has_output_shape_output_shape_0"), val = tensor<int32, [4]>([1, 256, 19, 35])];
            tensor<fp16, [512, 256, 5, 5]> instruments_0_up1_0_weight_to_fp16 = const()[name = tensor<string, []>("instruments_0_up1_0_weight_to_fp16"), val = tensor<fp16, [512, 256, 5, 5]>(BLOBFILE(path = tensor<string, []>("@model_path/weights/weight.bin"), offset = tensor<uint64, []>(8739456)))];
            tensor<fp16, [256]> instruments_0_up1_0_bias_to_fp16 = const()[name = tensor<string, []>("instruments_0_up1_0_bias_to_fp16"), val = tensor<fp16, [256]>(BLOBFILE(path = tensor<string, []>("@model_path/weights/weight.bin"), offset = tensor<uint64, []>(15293120)))];
            tensor<fp16, [1, 256, 19, 35]> x_1_has_output_shape_cast_fp16 = conv_transpose(bias = instruments_0_up1_0_bias_to_fp16, dilations = x_1_dilations_0, groups = x_1_groups_0, output_shape = x_1_has_output_shape_output_shape_0, pad = x_1_pad_0, pad_type = x_1_pad_type_0, strides = x_1_strides_0, weight = instruments_0_up1_0_weight_to_fp16, x = input_45_cast_fp16)[name = tensor<string, []>("x_1_has_output_shape_cast_fp16")];
            tensor<int32, [4]> var_185_begin_0 = const()[name = tensor<string, []>("op_185_begin_0"), val = tensor<int32, [4]>([0, 0, 1, 0])];
            tensor<int32, [4]> var_185_end_0 = const()[name = tensor<string, []>("op_185_end_0"), val = tensor<int32, [4]>([1, 256, 17, 35])];
            tensor<bool, [4]> var_185_end_mask_0 = const()[name = tensor<string, []>("op_185_end_mask_0"), val = tensor<bool, [4]>([true, true, false, true])];
            tensor<fp16, [1, 256, 16, 35]> var_185_cast_fp16 = slice_by_index(begin = var_185_begin_0, end = var_185_end_0, end_mask = var_185_end_mask_0, x = x_1_has_output_shape_cast_fp16)[name = tensor<string, []>("op_185_cast_fp16")];
            tensor<int32, [4]> input_49_begin_0 = const()[name = tensor<string, []>("input_49_begin_0"), val = tensor<int32, [4]>([0, 0, 0, 1])];
            tensor<int32, [4]> input_49_end_0 = const()[name = tensor<string, []>("input_49_end_0"), val = tensor<int32, [4]>([1, 256, 16, 33])];
            tensor<bool, [4]> input_49_end_mask_0 = const()[name = tensor<string, []>("input_49_end_mask_0"), val = tensor<bool, [4]>([true, true, true, false])];
            tensor<fp16, [1, 256, 16, 32]> input_49_cast_fp16 = slice_by_index(begin = input_49_begin_0, end = input_49_end_0, end_mask = input_49_end_mask_0, x = var_185_cast_fp16)[name = tensor<string, []>("input_49_cast_fp16")];
            tensor<fp16, [1, 256, 16, 32]> input_51_cast_fp16 = elu(alpha = var_53_to_fp16, x = input_49_cast_fp16)[name = tensor<string, []>("input_51_cast_fp16")];
            tensor<fp16, [256]> instruments_0_up1_3_weight_to_fp16 = const()[name = tensor<string, []>("instruments_0_up1_3_weight_to_fp16"), val = tensor<fp16, [256]>(BLOBFILE(path = tensor<string, []>("@model_path/weights/weight.bin"), offset = tensor<uint64, []>(15293696)))];
            tensor<fp16, [256]> instruments_0_up1_3_bias_to_fp16 = const()[name = tensor<string, []>("instruments_0_up1_3_bias_to_fp16"), val = tensor<fp16, [256]>(BLOBFILE(path = tensor<string, []>("@model_path/weights/weight.bin"), offset = tensor<uint64, []>(15294272)))];
            tensor<fp16, [1, 256, 16, 32]> input_53_cast_fp16 = batch_norm(beta = instruments_0_up1_3_bias_to_fp16, epsilon = var_51_to_fp16, gamma = instruments_0_up1_3_weight_to_fp16, mean = instruments_0_down5_act_0_running_mean_to_fp16, variance = instruments_0_down5_act_0_running_var_to_fp16, x = input_51_cast_fp16)[name = tensor<string, []>("input_53_cast_fp16")];
            tensor<bool, []> input_55_interleave_0 = const()[name = tensor<string, []>("input_55_interleave_0"), val = tensor<bool, []>(false)];
            tensor<fp16, [1, 512, 16, 32]> input_55_cast_fp16 = concat(axis = var_57, interleave = input_55_interleave_0, values = (input_37_cast_fp16, input_53_cast_fp16))[name = tensor<string, []>("input_55_cast_fp16")];
            tensor<string, []> x_3_pad_type_0 = const()[name = tensor<string, []>("x_3_pad_type_0"), val = tensor<string, []>("valid")];
            tensor<int32, [2]> x_3_strides_0 = const()[name = tensor<string, []>("x_3_strides_0"), val = tensor<int32, [2]>([2, 2])];
            tensor<int32, [4]> x_3_pad_0 = const()[name = tensor<string, []>("x_3_pad_0"), val = tensor<int32, [4]>([0, 0, 0, 0])];
            tensor<int32, [2]> x_3_dilations_0 = const()[name = tensor<string, []>("x_3_dilations_0"), val = tensor<int32, [2]>([1, 1])];
            tensor<int32, []> x_3_groups_0 = const()[name = tensor<string, []>("x_3_groups_0"), val = tensor<int32, []>(1)];
            tensor<int32, [4]> x_3_has_output_shape_output_shape_0 = const()[name = tensor<string, []>("x_3_has_output_shape_output_shape_0"), val = tensor<int32, [4]>([1, 128, 35, 67])];
            tensor<fp16, [512, 128, 5, 5]> instruments_0_up2_0_weight_to_fp16 = const()[name = tensor<string, []>("instruments_0_up2_0_weight_to_fp16"), val = tensor<fp16, [512, 128, 5, 5]>(BLOBFILE(path = tensor<string, []>("@model_path/weights/weight.bin"), offset = tensor<uint64, []>(15294848)))];
            tensor<fp16, [128]> instruments_0_up2_0_bias_to_fp16 = const()[name = tensor<string, []>("instruments_0_up2_0_bias_to_fp16"), val = tensor<fp16, [128]>(BLOBFILE(path = tensor<string, []>("@model_path/weights/weight.bin"), offset = tensor<uint64, []>(18571712)))];
            tensor<fp16, [1, 128, 35, 67]> x_3_has_output_shape_cast_fp16 = conv_transpose(bias = instruments_0_up2_0_bias_to_fp16, dilations = x_3_dilations_0, groups = x_3_groups_0, output_shape = x_3_has_output_shape_output_shape_0, pad = x_3_pad_0, pad_type = x_3_pad_type_0, strides = x_3_strides_0, weight = instruments_0_up2_0_weight_to_fp16, x = input_55_cast_fp16)[name = tensor<string, []>("x_3_has_output_shape_cast_fp16")];
            tensor<int32, [4]> var_207_begin_0 = const()[name = tensor<string, []>("op_207_begin_0"), val = tensor<int32, [4]>([0, 0, 1, 0])];
            tensor<int32, [4]> var_207_end_0 = const()[name = tensor<string, []>("op_207_end_0"), val = tensor<int32, [4]>([1, 128, 33, 67])];
            tensor<bool, [4]> var_207_end_mask_0 = const()[name = tensor<string, []>("op_207_end_mask_0"), val = tensor<bool, [4]>([true, true, false, true])];
            tensor<fp16, [1, 128, 32, 67]> var_207_cast_fp16 = slice_by_index(begin = var_207_begin_0, end = var_207_end_0, end_mask = var_207_end_mask_0, x = x_3_has_output_shape_cast_fp16)[name = tensor<string, []>("op_207_cast_fp16")];
            tensor<int32, [4]> input_57_begin_0 = const()[name = tensor<string, []>("input_57_begin_0"), val = tensor<int32, [4]>([0, 0, 0, 1])];
            tensor<int32, [4]> input_57_end_0 = const()[name = tensor<string, []>("input_57_end_0"), val = tensor<int32, [4]>([1, 128, 32, 65])];
            tensor<bool, [4]> input_57_end_mask_0 = const()[name = tensor<string, []>("input_57_end_mask_0"), val = tensor<bool, [4]>([true, true, true, false])];
            tensor<fp16, [1, 128, 32, 64]> input_57_cast_fp16 = slice_by_index(begin = input_57_begin_0, end = input_57_end_0, end_mask = input_57_end_mask_0, x = var_207_cast_fp16)[name = tensor<string, []>("input_57_cast_fp16")];
            tensor<fp16, [1, 128, 32, 64]> input_59_cast_fp16 = elu(alpha = var_53_to_fp16, x = input_57_cast_fp16)[name = tensor<string, []>("input_59_cast_fp16")];
            tensor<fp16, [128]> instruments_0_up2_3_weight_to_fp16 = const()[name = tensor<string, []>("instruments_0_up2_3_weight_to_fp16"), val = tensor<fp16, [128]>(BLOBFILE(path = tensor<string, []>("@model_path/weights/weight.bin"), offset = tensor<uint64, []>(18572032)))];
            tensor<fp16, [128]> instruments_0_up2_3_bias_to_fp16 = const()[name = tensor<string, []>("instruments_0_up2_3_bias_to_fp16"), val = tensor<fp16, [128]>(BLOBFILE(path = tensor<string, []>("@model_path/weights/weight.bin"), offset = tensor<uint64, []>(18572352)))];
            tensor<fp16, [1, 128, 32, 64]> input_61_cast_fp16 = batch_norm(beta = instruments_0_up2_3_bias_to_fp16, epsilon = var_51_to_fp16, gamma = instruments_0_up2_3_weight_to_fp16, mean = instruments_0_down4_act_0_running_mean_to_fp16, variance = instruments_0_down4_act_0_running_var_to_fp16, x = input_59_cast_fp16)[name = tensor<string, []>("input_61_cast_fp16")];
            tensor<bool, []> input_63_interleave_0 = const()[name = tensor<string, []>("input_63_interleave_0"), val = tensor<bool, []>(false)];
            tensor<fp16, [1, 256, 32, 64]> input_63_cast_fp16 = concat(axis = var_57, interleave = input_63_interleave_0, values = (input_29_cast_fp16, input_61_cast_fp16))[name = tensor<string, []>("input_63_cast_fp16")];
            tensor<string, []> x_5_pad_type_0 = const()[name = tensor<string, []>("x_5_pad_type_0"), val = tensor<string, []>("valid")];
            tensor<int32, [2]> x_5_strides_0 = const()[name = tensor<string, []>("x_5_strides_0"), val = tensor<int32, [2]>([2, 2])];
            tensor<int32, [4]> x_5_pad_0 = const()[name = tensor<string, []>("x_5_pad_0"), val = tensor<int32, [4]>([0, 0, 0, 0])];
            tensor<int32, [2]> x_5_dilations_0 = const()[name = tensor<string, []>("x_5_dilations_0"), val = tensor<int32, [2]>([1, 1])];
            tensor<int32, []> x_5_groups_0 = const()[name = tensor<string, []>("x_5_groups_0"), val = tensor<int32, []>(1)];
            tensor<int32, [4]> x_5_has_output_shape_output_shape_0 = const()[name = tensor<string, []>("x_5_has_output_shape_output_shape_0"), val = tensor<int32, [4]>([1, 64, 67, 131])];
            tensor<fp16, [256, 64, 5, 5]> instruments_0_up3_0_weight_to_fp16 = const()[name = tensor<string, []>("instruments_0_up3_0_weight_to_fp16"), val = tensor<fp16, [256, 64, 5, 5]>(BLOBFILE(path = tensor<string, []>("@model_path/weights/weight.bin"), offset = tensor<uint64, []>(18572672)))];
            tensor<fp16, [64]> instruments_0_up3_0_bias_to_fp16 = const()[name = tensor<string, []>("instruments_0_up3_0_bias_to_fp16"), val = tensor<fp16, [64]>(BLOBFILE(path = tensor<string, []>("@model_path/weights/weight.bin"), offset = tensor<uint64, []>(19391936)))];
            tensor<fp16, [1, 64, 67, 131]> x_5_has_output_shape_cast_fp16 = conv_transpose(bias = instruments_0_up3_0_bias_to_fp16, dilations = x_5_dilations_0, groups = x_5_groups_0, output_shape = x_5_has_output_shape_output_shape_0, pad = x_5_pad_0, pad_type = x_5_pad_type_0, strides = x_5_strides_0, weight = instruments_0_up3_0_weight_to_fp16, x = input_63_cast_fp16)[name = tensor<string, []>("x_5_has_output_shape_cast_fp16")];
            tensor<int32, [4]> var_229_begin_0 = const()[name = tensor<string, []>("op_229_begin_0"), val = tensor<int32, [4]>([0, 0, 1, 0])];
            tensor<int32, [4]> var_229_end_0 = const()[name = tensor<string, []>("op_229_end_0"), val = tensor<int32, [4]>([1, 64, 65, 131])];
            tensor<bool, [4]> var_229_end_mask_0 = const()[name = tensor<string, []>("op_229_end_mask_0"), val = tensor<bool, [4]>([true, true, false, true])];
            tensor<fp16, [1, 64, 64, 131]> var_229_cast_fp16 = slice_by_index(begin = var_229_begin_0, end = var_229_end_0, end_mask = var_229_end_mask_0, x = x_5_has_output_shape_cast_fp16)[name = tensor<string, []>("op_229_cast_fp16")];
            tensor<int32, [4]> input_65_begin_0 = const()[name = tensor<string, []>("input_65_begin_0"), val = tensor<int32, [4]>([0, 0, 0, 1])];
            tensor<int32, [4]> input_65_end_0 = const()[name = tensor<string, []>("input_65_end_0"), val = tensor<int32, [4]>([1, 64, 64, 129])];
            tensor<bool, [4]> input_65_end_mask_0 = const()[name = tensor<string, []>("input_65_end_mask_0"), val = tensor<bool, [4]>([true, true, true, false])];
            tensor<fp16, [1, 64, 64, 128]> input_65_cast_fp16 = slice_by_index(begin = input_65_begin_0, end = input_65_end_0, end_mask = input_65_end_mask_0, x = var_229_cast_fp16)[name = tensor<string, []>("input_65_cast_fp16")];
            tensor<fp16, [1, 64, 64, 128]> input_67_cast_fp16 = elu(alpha = var_53_to_fp16, x = input_65_cast_fp16)[name = tensor<string, []>("input_67_cast_fp16")];
            tensor<fp16, [64]> instruments_0_up3_3_running_mean_to_fp16 = const()[name = tensor<string, []>("instruments_0_up3_3_running_mean_to_fp16"), val = tensor<fp16, [64]>(BLOBFILE(path = tensor<string, []>("@model_path/weights/weight.bin"), offset = tensor<uint64, []>(19392128)))];
            tensor<fp16, [64]> instruments_0_up3_3_running_var_to_fp16 = const()[name = tensor<string, []>("instruments_0_up3_3_running_var_to_fp16"), val = tensor<fp16, [64]>(BLOBFILE(path = tensor<string, []>("@model_path/weights/weight.bin"), offset = tensor<uint64, []>(19392320)))];
            tensor<fp16, [64]> instruments_0_up3_3_weight_to_fp16 = const()[name = tensor<string, []>("instruments_0_up3_3_weight_to_fp16"), val = tensor<fp16, [64]>(BLOBFILE(path = tensor<string, []>("@model_path/weights/weight.bin"), offset = tensor<uint64, []>(19392512)))];
            tensor<fp16, [64]> instruments_0_up3_3_bias_to_fp16 = const()[name = tensor<string, []>("instruments_0_up3_3_bias_to_fp16"), val = tensor<fp16, [64]>(BLOBFILE(path = tensor<string, []>("@model_path/weights/weight.bin"), offset = tensor<uint64, []>(19392704)))];
            tensor<fp16, [1, 64, 64, 128]> input_69_cast_fp16 = batch_norm(beta = instruments_0_up3_3_bias_to_fp16, epsilon = var_51_to_fp16, gamma = instruments_0_up3_3_weight_to_fp16, mean = instruments_0_up3_3_running_mean_to_fp16, variance = instruments_0_up3_3_running_var_to_fp16, x = input_67_cast_fp16)[name = tensor<string, []>("input_69_cast_fp16")];
            tensor<bool, []> input_71_interleave_0 = const()[name = tensor<string, []>("input_71_interleave_0"), val = tensor<bool, []>(false)];
            tensor<fp16, [1, 128, 64, 128]> input_71_cast_fp16 = concat(axis = var_57, interleave = input_71_interleave_0, values = (input_21_cast_fp16, input_69_cast_fp16))[name = tensor<string, []>("input_71_cast_fp16")];
            tensor<string, []> x_7_pad_type_0 = const()[name = tensor<string, []>("x_7_pad_type_0"), val = tensor<string, []>("valid")];
            tensor<int32, [2]> x_7_strides_0 = const()[name = tensor<string, []>("x_7_strides_0"), val = tensor<int32, [2]>([2, 2])];
            tensor<int32, [4]> x_7_pad_0 = const()[name = tensor<string, []>("x_7_pad_0"), val = tensor<int32, [4]>([0, 0, 0, 0])];
            tensor<int32, [2]> x_7_dilations_0 = const()[name = tensor<string, []>("x_7_dilations_0"), val = tensor<int32, [2]>([1, 1])];
            tensor<int32, []> x_7_groups_0 = const()[name = tensor<string, []>("x_7_groups_0"), val = tensor<int32, []>(1)];
            tensor<int32, [4]> x_7_has_output_shape_output_shape_0 = const()[name = tensor<string, []>("x_7_has_output_shape_output_shape_0"), val = tensor<int32, [4]>([1, 32, 131, 259])];
            tensor<fp16, [128, 32, 5, 5]> instruments_0_up4_0_weight_to_fp16 = const()[name = tensor<string, []>("instruments_0_up4_0_weight_to_fp16"), val = tensor<fp16, [128, 32, 5, 5]>(BLOBFILE(path = tensor<string, []>("@model_path/weights/weight.bin"), offset = tensor<uint64, []>(19392896)))];
            tensor<fp16, [32]> instruments_0_up4_0_bias_to_fp16 = const()[name = tensor<string, []>("instruments_0_up4_0_bias_to_fp16"), val = tensor<fp16, [32]>(BLOBFILE(path = tensor<string, []>("@model_path/weights/weight.bin"), offset = tensor<uint64, []>(19597760)))];
            tensor<fp16, [1, 32, 131, 259]> x_7_has_output_shape_cast_fp16 = conv_transpose(bias = instruments_0_up4_0_bias_to_fp16, dilations = x_7_dilations_0, groups = x_7_groups_0, output_shape = x_7_has_output_shape_output_shape_0, pad = x_7_pad_0, pad_type = x_7_pad_type_0, strides = x_7_strides_0, weight = instruments_0_up4_0_weight_to_fp16, x = input_71_cast_fp16)[name = tensor<string, []>("x_7_has_output_shape_cast_fp16")];
            tensor<int32, [4]> var_251_begin_0 = const()[name = tensor<string, []>("op_251_begin_0"), val = tensor<int32, [4]>([0, 0, 1, 0])];
            tensor<int32, [4]> var_251_end_0 = const()[name = tensor<string, []>("op_251_end_0"), val = tensor<int32, [4]>([1, 32, 129, 259])];
            tensor<bool, [4]> var_251_end_mask_0 = const()[name = tensor<string, []>("op_251_end_mask_0"), val = tensor<bool, [4]>([true, true, false, true])];
            tensor<fp16, [1, 32, 128, 259]> var_251_cast_fp16 = slice_by_index(begin = var_251_begin_0, end = var_251_end_0, end_mask = var_251_end_mask_0, x = x_7_has_output_shape_cast_fp16)[name = tensor<string, []>("op_251_cast_fp16")];
            tensor<int32, [4]> input_73_begin_0 = const()[name = tensor<string, []>("input_73_begin_0"), val = tensor<int32, [4]>([0, 0, 0, 1])];
            tensor<int32, [4]> input_73_end_0 = const()[name = tensor<string, []>("input_73_end_0"), val = tensor<int32, [4]>([1, 32, 128, 257])];
            tensor<bool, [4]> input_73_end_mask_0 = const()[name = tensor<string, []>("input_73_end_mask_0"), val = tensor<bool, [4]>([true, true, true, false])];
            tensor<fp16, [1, 32, 128, 256]> input_73_cast_fp16 = slice_by_index(begin = input_73_begin_0, end = input_73_end_0, end_mask = input_73_end_mask_0, x = var_251_cast_fp16)[name = tensor<string, []>("input_73_cast_fp16")];
            tensor<fp16, [1, 32, 128, 256]> input_75_cast_fp16 = elu(alpha = var_53_to_fp16, x = input_73_cast_fp16)[name = tensor<string, []>("input_75_cast_fp16")];
            tensor<fp16, [32]> instruments_0_up4_3_running_mean_to_fp16 = const()[name = tensor<string, []>("instruments_0_up4_3_running_mean_to_fp16"), val = tensor<fp16, [32]>(BLOBFILE(path = tensor<string, []>("@model_path/weights/weight.bin"), offset = tensor<uint64, []>(19597888)))];
            tensor<fp16, [32]> instruments_0_up4_3_running_var_to_fp16 = const()[name = tensor<string, []>("instruments_0_up4_3_running_var_to_fp16"), val = tensor<fp16, [32]>(BLOBFILE(path = tensor<string, []>("@model_path/weights/weight.bin"), offset = tensor<uint64, []>(19598016)))];
            tensor<fp16, [32]> instruments_0_up4_3_weight_to_fp16 = const()[name = tensor<string, []>("instruments_0_up4_3_weight_to_fp16"), val = tensor<fp16, [32]>(BLOBFILE(path = tensor<string, []>("@model_path/weights/weight.bin"), offset = tensor<uint64, []>(19598144)))];
            tensor<fp16, [32]> instruments_0_up4_3_bias_to_fp16 = const()[name = tensor<string, []>("instruments_0_up4_3_bias_to_fp16"), val = tensor<fp16, [32]>(BLOBFILE(path = tensor<string, []>("@model_path/weights/weight.bin"), offset = tensor<uint64, []>(19598272)))];
            tensor<fp16, [1, 32, 128, 256]> u4_1_cast_fp16 = batch_norm(beta = instruments_0_up4_3_bias_to_fp16, epsilon = var_51_to_fp16, gamma = instruments_0_up4_3_weight_to_fp16, mean = instruments_0_up4_3_running_mean_to_fp16, variance = instruments_0_up4_3_running_var_to_fp16, x = input_75_cast_fp16)[name = tensor<string, []>("u4_1_cast_fp16")];
            tensor<bool, []> input_77_interleave_0 = const()[name = tensor<string, []>("input_77_interleave_0"), val = tensor<bool, []>(false)];
            tensor<fp16, [1, 64, 128, 256]> input_77_cast_fp16 = concat(axis = var_57, interleave = input_77_interleave_0, values = (input_13_cast_fp16, u4_1_cast_fp16))[name = tensor<string, []>("input_77_cast_fp16")];
            tensor<string, []> x_9_pad_type_0 = const()[name = tensor<string, []>("x_9_pad_type_0"), val = tensor<string, []>("valid")];
            tensor<int32, [2]> x_9_strides_0 = const()[name = tensor<string, []>("x_9_strides_0"), val = tensor<int32, [2]>([2, 2])];
            tensor<int32, [4]> x_9_pad_0 = const()[name = tensor<string, []>("x_9_pad_0"), val = tensor<int32, [4]>([0, 0, 0, 0])];
            tensor<int32, [2]> x_9_dilations_0 = const()[name = tensor<string, []>("x_9_dilations_0"), val = tensor<int32, [2]>([1, 1])];
            tensor<int32, []> x_9_groups_0 = const()[name = tensor<string, []>("x_9_groups_0"), val = tensor<int32, []>(1)];
            tensor<int32, [4]> x_9_has_output_shape_output_shape_0 = const()[name = tensor<string, []>("x_9_has_output_shape_output_shape_0"), val = tensor<int32, [4]>([1, 16, 259, 515])];
            tensor<fp16, [64, 16, 5, 5]> instruments_0_up5_0_weight_to_fp16 = const()[name = tensor<string, []>("instruments_0_up5_0_weight_to_fp16"), val = tensor<fp16, [64, 16, 5, 5]>(BLOBFILE(path = tensor<string, []>("@model_path/weights/weight.bin"), offset = tensor<uint64, []>(19598400)))];
            tensor<fp16, [16]> instruments_0_up5_0_bias_to_fp16 = const()[name = tensor<string, []>("instruments_0_up5_0_bias_to_fp16"), val = tensor<fp16, [16]>(BLOBFILE(path = tensor<string, []>("@model_path/weights/weight.bin"), offset = tensor<uint64, []>(19649664)))];
            tensor<fp16, [1, 16, 259, 515]> x_9_has_output_shape_cast_fp16 = conv_transpose(bias = instruments_0_up5_0_bias_to_fp16, dilations = x_9_dilations_0, groups = x_9_groups_0, output_shape = x_9_has_output_shape_output_shape_0, pad = x_9_pad_0, pad_type = x_9_pad_type_0, strides = x_9_strides_0, weight = instruments_0_up5_0_weight_to_fp16, x = input_77_cast_fp16)[name = tensor<string, []>("x_9_has_output_shape_cast_fp16")];
            tensor<int32, [4]> var_272_begin_0 = const()[name = tensor<string, []>("op_272_begin_0"), val = tensor<int32, [4]>([0, 0, 1, 0])];
            tensor<int32, [4]> var_272_end_0 = const()[name = tensor<string, []>("op_272_end_0"), val = tensor<int32, [4]>([1, 16, 257, 515])];
            tensor<bool, [4]> var_272_end_mask_0 = const()[name = tensor<string, []>("op_272_end_mask_0"), val = tensor<bool, [4]>([true, true, false, true])];
            tensor<fp16, [1, 16, 256, 515]> var_272_cast_fp16 = slice_by_index(begin = var_272_begin_0, end = var_272_end_0, end_mask = var_272_end_mask_0, x = x_9_has_output_shape_cast_fp16)[name = tensor<string, []>("op_272_cast_fp16")];
            tensor<int32, [4]> input_79_begin_0 = const()[name = tensor<string, []>("input_79_begin_0"), val = tensor<int32, [4]>([0, 0, 0, 1])];
            tensor<int32, [4]> input_79_end_0 = const()[name = tensor<string, []>("input_79_end_0"), val = tensor<int32, [4]>([1, 16, 256, 513])];
            tensor<bool, [4]> input_79_end_mask_0 = const()[name = tensor<string, []>("input_79_end_mask_0"), val = tensor<bool, [4]>([true, true, true, false])];
            tensor<fp16, [1, 16, 256, 512]> input_79_cast_fp16 = slice_by_index(begin = input_79_begin_0, end = input_79_end_0, end_mask = input_79_end_mask_0, x = var_272_cast_fp16)[name = tensor<string, []>("input_79_cast_fp16")];
            tensor<fp16, [1, 16, 256, 512]> input_81_cast_fp16 = elu(alpha = var_53_to_fp16, x = input_79_cast_fp16)[name = tensor<string, []>("input_81_cast_fp16")];
            tensor<fp16, [16]> instruments_0_up5_3_running_mean_to_fp16 = const()[name = tensor<string, []>("instruments_0_up5_3_running_mean_to_fp16"), val = tensor<fp16, [16]>(BLOBFILE(path = tensor<string, []>("@model_path/weights/weight.bin"), offset = tensor<uint64, []>(19649792)))];
            tensor<fp16, [16]> instruments_0_up5_3_running_var_to_fp16 = const()[name = tensor<string, []>("instruments_0_up5_3_running_var_to_fp16"), val = tensor<fp16, [16]>(BLOBFILE(path = tensor<string, []>("@model_path/weights/weight.bin"), offset = tensor<uint64, []>(19649920)))];
            tensor<fp16, [16]> instruments_0_up5_3_weight_to_fp16 = const()[name = tensor<string, []>("instruments_0_up5_3_weight_to_fp16"), val = tensor<fp16, [16]>(BLOBFILE(path = tensor<string, []>("@model_path/weights/weight.bin"), offset = tensor<uint64, []>(19650048)))];
            tensor<fp16, [16]> instruments_0_up5_3_bias_to_fp16 = const()[name = tensor<string, []>("instruments_0_up5_3_bias_to_fp16"), val = tensor<fp16, [16]>(BLOBFILE(path = tensor<string, []>("@model_path/weights/weight.bin"), offset = tensor<uint64, []>(19650176)))];
            tensor<fp16, [1, 16, 256, 512]> u5_1_cast_fp16 = batch_norm(beta = instruments_0_up5_3_bias_to_fp16, epsilon = var_51_to_fp16, gamma = instruments_0_up5_3_weight_to_fp16, mean = instruments_0_up5_3_running_mean_to_fp16, variance = instruments_0_up5_3_running_var_to_fp16, x = input_81_cast_fp16)[name = tensor<string, []>("u5_1_cast_fp16")];
            tensor<bool, []> input_83_interleave_0 = const()[name = tensor<string, []>("input_83_interleave_0"), val = tensor<bool, []>(false)];
            tensor<fp16, [1, 32, 256, 512]> input_83_cast_fp16 = concat(axis = var_57, interleave = input_83_interleave_0, values = (input_5_cast_fp16, u5_1_cast_fp16))[name = tensor<string, []>("input_83_cast_fp16")];
            tensor<string, []> x_11_pad_type_0 = const()[name = tensor<string, []>("x_11_pad_type_0"), val = tensor<string, []>("valid")];
            tensor<int32, [2]> x_11_strides_0 = const()[name = tensor<string, []>("x_11_strides_0"), val = tensor<int32, [2]>([2, 2])];
            tensor<int32, [4]> x_11_pad_0 = const()[name = tensor<string, []>("x_11_pad_0"), val = tensor<int32, [4]>([0, 0, 0, 0])];
            tensor<int32, [2]> x_11_dilations_0 = const()[name = tensor<string, []>("x_11_dilations_0"), val = tensor<int32, [2]>([1, 1])];
            tensor<int32, []> x_11_groups_0 = const()[name = tensor<string, []>("x_11_groups_0"), val = tensor<int32, []>(1)];
            tensor<int32, [4]> x_11_has_output_shape_output_shape_0 = const()[name = tensor<string, []>("x_11_has_output_shape_output_shape_0"), val = tensor<int32, [4]>([1, 1, 515, 1027])];
            tensor<fp16, [32, 1, 5, 5]> instruments_0_up6_0_weight_to_fp16 = const()[name = tensor<string, []>("instruments_0_up6_0_weight_to_fp16"), val = tensor<fp16, [32, 1, 5, 5]>(BLOBFILE(path = tensor<string, []>("@model_path/weights/weight.bin"), offset = tensor<uint64, []>(19650304)))];
            tensor<fp16, [1]> instruments_0_up6_0_bias_to_fp16 = const()[name = tensor<string, []>("instruments_0_up6_0_bias_to_fp16"), val = tensor<fp16, [1]>([0x1.74p-1])];
            tensor<fp16, [1, 1, 515, 1027]> x_11_has_output_shape_cast_fp16 = conv_transpose(bias = instruments_0_up6_0_bias_to_fp16, dilations = x_11_dilations_0, groups = x_11_groups_0, output_shape = x_11_has_output_shape_output_shape_0, pad = x_11_pad_0, pad_type = x_11_pad_type_0, strides = x_11_strides_0, weight = instruments_0_up6_0_weight_to_fp16, x = input_83_cast_fp16)[name = tensor<string, []>("x_11_has_output_shape_cast_fp16")];
            tensor<int32, [4]> var_293_begin_0 = const()[name = tensor<string, []>("op_293_begin_0"), val = tensor<int32, [4]>([0, 0, 1, 0])];
            tensor<int32, [4]> var_293_end_0 = const()[name = tensor<string, []>("op_293_end_0"), val = tensor<int32, [4]>([1, 1, 513, 1027])];
            tensor<bool, [4]> var_293_end_mask_0 = const()[name = tensor<string, []>("op_293_end_mask_0"), val = tensor<bool, [4]>([true, true, false, true])];
            tensor<fp16, [1, 1, 512, 1027]> var_293_cast_fp16 = slice_by_index(begin = var_293_begin_0, end = var_293_end_0, end_mask = var_293_end_mask_0, x = x_11_has_output_shape_cast_fp16)[name = tensor<string, []>("op_293_cast_fp16")];
            tensor<int32, [4]> input_85_begin_0 = const()[name = tensor<string, []>("input_85_begin_0"), val = tensor<int32, [4]>([0, 0, 0, 1])];
            tensor<int32, [4]> input_85_end_0 = const()[name = tensor<string, []>("input_85_end_0"), val = tensor<int32, [4]>([1, 1, 512, 1025])];
            tensor<bool, [4]> input_85_end_mask_0 = const()[name = tensor<string, []>("input_85_end_mask_0"), val = tensor<bool, [4]>([true, true, true, false])];
            tensor<fp16, [1, 1, 512, 1024]> input_85_cast_fp16 = slice_by_index(begin = input_85_begin_0, end = input_85_end_0, end_mask = input_85_end_mask_0, x = var_293_cast_fp16)[name = tensor<string, []>("input_85_cast_fp16")];
            tensor<fp16, [1, 1, 512, 1024]> input_87_cast_fp16 = elu(alpha = var_53_to_fp16, x = input_85_cast_fp16)[name = tensor<string, []>("input_87_cast_fp16")];
            tensor<fp16, [1]> instruments_0_up6_3_running_mean_to_fp16 = const()[name = tensor<string, []>("instruments_0_up6_3_running_mean_to_fp16"), val = tensor<fp16, [1]>([0x0p+0])];
            tensor<fp16, [1]> instruments_0_up6_3_running_var_to_fp16 = const()[name = tensor<string, []>("instruments_0_up6_3_running_var_to_fp16"), val = tensor<fp16, [1]>([0x1p+0])];
            tensor<fp16, [1]> instruments_0_up6_3_weight_to_fp16 = const()[name = tensor<string, []>("instruments_0_up6_3_weight_to_fp16"), val = tensor<fp16, [1]>([0x1.b78p-5])];
            tensor<fp16, [1]> instruments_0_up6_3_bias_to_fp16 = const()[name = tensor<string, []>("instruments_0_up6_3_bias_to_fp16"), val = tensor<fp16, [1]>([-0x1.75p+0])];
            tensor<fp16, [1, 1, 512, 1024]> input_89_cast_fp16 = batch_norm(beta = instruments_0_up6_3_bias_to_fp16, epsilon = var_51_to_fp16, gamma = instruments_0_up6_3_weight_to_fp16, mean = instruments_0_up6_3_running_mean_to_fp16, variance = instruments_0_up6_3_running_var_to_fp16, x = input_87_cast_fp16)[name = tensor<string, []>("input_89_cast_fp16")];
            tensor<string, []> u7_1_pad_type_0 = const()[name = tensor<string, []>("u7_1_pad_type_0"), val = tensor<string, []>("custom")];
            tensor<int32, [4]> u7_1_pad_0 = const()[name = tensor<string, []>("u7_1_pad_0"), val = tensor<int32, [4]>([3, 3, 3, 3])];
            tensor<int32, [2]> u7_1_dilations_0 = const()[name = tensor<string, []>("u7_1_dilations_0"), val = tensor<int32, [2]>([2, 2])];
            tensor<int32, [2]> u7_1_strides_0 = const()[name = tensor<string, []>("u7_1_strides_0"), val = tensor<int32, [2]>([1, 1])];
            tensor<int32, []> u7_1_groups_0 = const()[name = tensor<string, []>("u7_1_groups_0"), val = tensor<int32, []>(1)];
            tensor<fp16, [2, 1, 4, 4]> instruments_0_up7_0_weight_to_fp16 = const()[name = tensor<string, []>("instruments_0_up7_0_weight_to_fp16"), val = tensor<fp16, [2, 1, 4, 4]>(BLOBFILE(path = tensor<string, []>("@model_path/weights/weight.bin"), offset = tensor<uint64, []>(19651968)))];
            tensor<fp16, [2]> instruments_0_up7_0_bias_to_fp16 = const()[name = tensor<string, []>("instruments_0_up7_0_bias_to_fp16"), val = tensor<fp16, [2]>([0x1.93cp-1, 0x1.97cp-1])];
            tensor<fp16, [1, 2, 512, 1024]> u7_1_cast_fp16 = conv(bias = instruments_0_up7_0_bias_to_fp16, dilations = u7_1_dilations_0, groups = u7_1_groups_0, pad = u7_1_pad_0, pad_type = u7_1_pad_type_0, strides = u7_1_strides_0, weight = instruments_0_up7_0_weight_to_fp16, x = input_89_cast_fp16)[name = tensor<string, []>("u7_1_cast_fp16")];
            tensor<fp16, [1, 2, 512, 1024]> u7_3_cast_fp16 = sigmoid(x = u7_1_cast_fp16)[name = tensor<string, []>("u7_3_cast_fp16")];
            tensor<fp16, [1, 2, 512, 1024]> var_310_cast_fp16 = mul(x = u7_3_cast_fp16, y = input_1_cast_fp16)[name = tensor<string, []>("op_310_cast_fp16")];
            tensor<int32, []> var_321 = const()[name = tensor<string, []>("op_321"), val = tensor<int32, []>(1)];
            tensor<string, []> input_93_pad_type_0 = const()[name = tensor<string, []>("input_93_pad_type_0"), val = tensor<string, []>("valid")];
            tensor<int32, [2]> input_93_strides_0 = const()[name = tensor<string, []>("input_93_strides_0"), val = tensor<int32, [2]>([2, 2])];
            tensor<int32, [4]> input_93_pad_0 = const()[name = tensor<string, []>("input_93_pad_0"), val = tensor<int32, [4]>([0, 0, 0, 0])];
            tensor<int32, [2]> input_93_dilations_0 = const()[name = tensor<string, []>("input_93_dilations_0"), val = tensor<int32, [2]>([1, 1])];
            tensor<int32, []> input_93_groups_0 = const()[name = tensor<string, []>("input_93_groups_0"), val = tensor<int32, []>(1)];
            tensor<fp16, [16, 2, 5, 5]> instruments_1_down1_conv_1_weight_to_fp16 = const()[name = tensor<string, []>("instruments_1_down1_conv_1_weight_to_fp16"), val = tensor<fp16, [16, 2, 5, 5]>(BLOBFILE(path = tensor<string, []>("@model_path/weights/weight.bin"), offset = tensor<uint64, []>(19652096)))];
            tensor<fp16, [16]> instruments_1_down1_conv_1_bias_to_fp16 = const()[name = tensor<string, []>("instruments_1_down1_conv_1_bias_to_fp16"), val = tensor<fp16, [16]>(BLOBFILE(path = tensor<string, []>("@model_path/weights/weight.bin"), offset = tensor<uint64, []>(19653760)))];
            tensor<fp16, [1, 16, 256, 512]> input_93_cast_fp16 = conv(bias = instruments_1_down1_conv_1_bias_to_fp16, dilations = input_93_dilations_0, groups = input_93_groups_0, pad = input_93_pad_0, pad_type = input_93_pad_type_0, strides = input_93_strides_0, weight = instruments_1_down1_conv_1_weight_to_fp16, x = input_3_cast_fp16)[name = tensor<string, []>("input_93_cast_fp16")];
            tensor<fp16, [16]> instruments_1_down1_act_0_running_mean_to_fp16 = const()[name = tensor<string, []>("instruments_1_down1_act_0_running_mean_to_fp16"), val = tensor<fp16, [16]>(BLOBFILE(path = tensor<string, []>("@model_path/weights/weight.bin"), offset = tensor<uint64, []>(19653888)))];
            tensor<fp16, [16]> instruments_1_down1_act_0_running_var_to_fp16 = const()[name = tensor<string, []>("instruments_1_down1_act_0_running_var_to_fp16"), val = tensor<fp16, [16]>(BLOBFILE(path = tensor<string, []>("@model_path/weights/weight.bin"), offset = tensor<uint64, []>(19654016)))];
            tensor<fp16, [16]> instruments_1_down1_act_0_weight_to_fp16 = const()[name = tensor<string, []>("instruments_1_down1_act_0_weight_to_fp16"), val = tensor<fp16, [16]>(BLOBFILE(path = tensor<string, []>("@model_path/weights/weight.bin"), offset = tensor<uint64, []>(19654144)))];
            tensor<fp16, [16]> instruments_1_down1_act_0_bias_to_fp16 = const()[name = tensor<string, []>("instruments_1_down1_act_0_bias_to_fp16"), val = tensor<fp16, [16]>(BLOBFILE(path = tensor<string, []>("@model_path/weights/weight.bin"), offset = tensor<uint64, []>(19654272)))];
            tensor<fp16, []> var_315_to_fp16 = const()[name = tensor<string, []>("op_315_to_fp16"), val = tensor<fp16, []>(0x1.064p-10)];
            tensor<fp16, [1, 16, 256, 512]> input_95_cast_fp16 = batch_norm(beta = instruments_1_down1_act_0_bias_to_fp16, epsilon = var_315_to_fp16, gamma = instruments_1_down1_act_0_weight_to_fp16, mean = instruments_1_down1_act_0_running_mean_to_fp16, variance = instruments_1_down1_act_0_running_var_to_fp16, x = input_93_cast_fp16)[name = tensor<string, []>("input_95_cast_fp16")];
            tensor<fp16, []> var_317_to_fp16 = const()[name = tensor<string, []>("op_317_to_fp16"), val = tensor<fp16, []>(0x1p+0)];
            tensor<fp16, [1, 16, 256, 512]> input_97_cast_fp16 = elu(alpha = var_317_to_fp16, x = input_95_cast_fp16)[name = tensor<string, []>("input_97_cast_fp16")];
            tensor<int32, [8]> input_99_pad_0 = const()[name = tensor<string, []>("input_99_pad_0"), val = tensor<int32, [8]>([0, 0, 0, 0, 1, 2, 1, 2])];
            tensor<string, []> input_99_mode_0 = const()[name = tensor<string, []>("input_99_mode_0"), val = tensor<string, []>("constant")];
            tensor<fp16, []> const_12_to_fp16 = const()[name = tensor<string, []>("const_12_to_fp16"), val = tensor<fp16, []>(0x0p+0)];
            tensor<fp16, [1, 16, 259, 515]> input_99_cast_fp16 = pad(constant_val = const_12_to_fp16, mode = input_99_mode_0, pad = input_99_pad_0, x = input_97_cast_fp16)[name = tensor<string, []>("input_99_cast_fp16")];
            tensor<string, []> input_101_pad_type_0 = const()[name = tensor<string, []>("input_101_pad_type_0"), val = tensor<string, []>("valid")];
            tensor<int32, [2]> input_101_strides_0 = const()[name = tensor<string, []>("input_101_strides_0"), val = tensor<int32, [2]>([2, 2])];
            tensor<int32, [4]> input_101_pad_0 = const()[name = tensor<string, []>("input_101_pad_0"), val = tensor<int32, [4]>([0, 0, 0, 0])];
            tensor<int32, [2]> input_101_dilations_0 = const()[name = tensor<string, []>("input_101_dilations_0"), val = tensor<int32, [2]>([1, 1])];
            tensor<int32, []> input_101_groups_0 = const()[name = tensor<string, []>("input_101_groups_0"), val = tensor<int32, []>(1)];
            tensor<fp16, [32, 16, 5, 5]> instruments_1_down2_conv_1_weight_to_fp16 = const()[name = tensor<string, []>("instruments_1_down2_conv_1_weight_to_fp16"), val = tensor<fp16, [32, 16, 5, 5]>(BLOBFILE(path = tensor<string, []>("@model_path/weights/weight.bin"), offset = tensor<uint64, []>(19654400)))];
            tensor<fp16, [32]> instruments_1_down2_conv_1_bias_to_fp16 = const()[name = tensor<string, []>("instruments_1_down2_conv_1_bias_to_fp16"), val = tensor<fp16, [32]>(BLOBFILE(path = tensor<string, []>("@model_path/weights/weight.bin"), offset = tensor<uint64, []>(19680064)))];
            tensor<fp16, [1, 32, 128, 256]> input_101_cast_fp16 = conv(bias = instruments_1_down2_conv_1_bias_to_fp16, dilations = input_101_dilations_0, groups = input_101_groups_0, pad = input_101_pad_0, pad_type = input_101_pad_type_0, strides = input_101_strides_0, weight = instruments_1_down2_conv_1_weight_to_fp16, x = input_99_cast_fp16)[name = tensor<string, []>("input_101_cast_fp16")];
            tensor<fp16, [32]> instruments_1_down2_act_0_running_mean_to_fp16 = const()[name = tensor<string, []>("instruments_1_down2_act_0_running_mean_to_fp16"), val = tensor<fp16, [32]>(BLOBFILE(path = tensor<string, []>("@model_path/weights/weight.bin"), offset = tensor<uint64, []>(19680192)))];
            tensor<fp16, [32]> instruments_1_down2_act_0_running_var_to_fp16 = const()[name = tensor<string, []>("instruments_1_down2_act_0_running_var_to_fp16"), val = tensor<fp16, [32]>(BLOBFILE(path = tensor<string, []>("@model_path/weights/weight.bin"), offset = tensor<uint64, []>(19680320)))];
            tensor<fp16, [32]> instruments_1_down2_act_0_weight_to_fp16 = const()[name = tensor<string, []>("instruments_1_down2_act_0_weight_to_fp16"), val = tensor<fp16, [32]>(BLOBFILE(path = tensor<string, []>("@model_path/weights/weight.bin"), offset = tensor<uint64, []>(19680448)))];
            tensor<fp16, [32]> instruments_1_down2_act_0_bias_to_fp16 = const()[name = tensor<string, []>("instruments_1_down2_act_0_bias_to_fp16"), val = tensor<fp16, [32]>(BLOBFILE(path = tensor<string, []>("@model_path/weights/weight.bin"), offset = tensor<uint64, []>(19680576)))];
            tensor<fp16, [1, 32, 128, 256]> input_103_cast_fp16 = batch_norm(beta = instruments_1_down2_act_0_bias_to_fp16, epsilon = var_315_to_fp16, gamma = instruments_1_down2_act_0_weight_to_fp16, mean = instruments_1_down2_act_0_running_mean_to_fp16, variance = instruments_1_down2_act_0_running_var_to_fp16, x = input_101_cast_fp16)[name = tensor<string, []>("input_103_cast_fp16")];
            tensor<fp16, [1, 32, 128, 256]> input_105_cast_fp16 = elu(alpha = var_317_to_fp16, x = input_103_cast_fp16)[name = tensor<string, []>("input_105_cast_fp16")];
            tensor<int32, [8]> input_107_pad_0 = const()[name = tensor<string, []>("input_107_pad_0"), val = tensor<int32, [8]>([0, 0, 0, 0, 1, 2, 1, 2])];
            tensor<string, []> input_107_mode_0 = const()[name = tensor<string, []>("input_107_mode_0"), val = tensor<string, []>("constant")];
            tensor<fp16, []> const_13_to_fp16 = const()[name = tensor<string, []>("const_13_to_fp16"), val = tensor<fp16, []>(0x0p+0)];
            tensor<fp16, [1, 32, 131, 259]> input_107_cast_fp16 = pad(constant_val = const_13_to_fp16, mode = input_107_mode_0, pad = input_107_pad_0, x = input_105_cast_fp16)[name = tensor<string, []>("input_107_cast_fp16")];
            tensor<string, []> input_109_pad_type_0 = const()[name = tensor<string, []>("input_109_pad_type_0"), val = tensor<string, []>("valid")];
            tensor<int32, [2]> input_109_strides_0 = const()[name = tensor<string, []>("input_109_strides_0"), val = tensor<int32, [2]>([2, 2])];
            tensor<int32, [4]> input_109_pad_0 = const()[name = tensor<string, []>("input_109_pad_0"), val = tensor<int32, [4]>([0, 0, 0, 0])];
            tensor<int32, [2]> input_109_dilations_0 = const()[name = tensor<string, []>("input_109_dilations_0"), val = tensor<int32, [2]>([1, 1])];
            tensor<int32, []> input_109_groups_0 = const()[name = tensor<string, []>("input_109_groups_0"), val = tensor<int32, []>(1)];
            tensor<fp16, [64, 32, 5, 5]> instruments_1_down3_conv_1_weight_to_fp16 = const()[name = tensor<string, []>("instruments_1_down3_conv_1_weight_to_fp16"), val = tensor<fp16, [64, 32, 5, 5]>(BLOBFILE(path = tensor<string, []>("@model_path/weights/weight.bin"), offset = tensor<uint64, []>(19680704)))];
            tensor<fp16, [64]> instruments_1_down3_conv_1_bias_to_fp16 = const()[name = tensor<string, []>("instruments_1_down3_conv_1_bias_to_fp16"), val = tensor<fp16, [64]>(BLOBFILE(path = tensor<string, []>("@model_path/weights/weight.bin"), offset = tensor<uint64, []>(19783168)))];
            tensor<fp16, [1, 64, 64, 128]> input_109_cast_fp16 = conv(bias = instruments_1_down3_conv_1_bias_to_fp16, dilations = input_109_dilations_0, groups = input_109_groups_0, pad = input_109_pad_0, pad_type = input_109_pad_type_0, strides = input_109_strides_0, weight = instruments_1_down3_conv_1_weight_to_fp16, x = input_107_cast_fp16)[name = tensor<string, []>("input_109_cast_fp16")];
            tensor<fp16, [64]> instruments_1_down3_act_0_running_mean_to_fp16 = const()[name = tensor<string, []>("instruments_1_down3_act_0_running_mean_to_fp16"), val = tensor<fp16, [64]>(BLOBFILE(path = tensor<string, []>("@model_path/weights/weight.bin"), offset = tensor<uint64, []>(19783360)))];
            tensor<fp16, [64]> instruments_1_down3_act_0_running_var_to_fp16 = const()[name = tensor<string, []>("instruments_1_down3_act_0_running_var_to_fp16"), val = tensor<fp16, [64]>(BLOBFILE(path = tensor<string, []>("@model_path/weights/weight.bin"), offset = tensor<uint64, []>(19783552)))];
            tensor<fp16, [64]> instruments_1_down3_act_0_weight_to_fp16 = const()[name = tensor<string, []>("instruments_1_down3_act_0_weight_to_fp16"), val = tensor<fp16, [64]>(BLOBFILE(path = tensor<string, []>("@model_path/weights/weight.bin"), offset = tensor<uint64, []>(19783744)))];
            tensor<fp16, [64]> instruments_1_down3_act_0_bias_to_fp16 = const()[name = tensor<string, []>("instruments_1_down3_act_0_bias_to_fp16"), val = tensor<fp16, [64]>(BLOBFILE(path = tensor<string, []>("@model_path/weights/weight.bin"), offset = tensor<uint64, []>(19783936)))];
            tensor<fp16, [1, 64, 64, 128]> input_111_cast_fp16 = batch_norm(beta = instruments_1_down3_act_0_bias_to_fp16, epsilon = var_315_to_fp16, gamma = instruments_1_down3_act_0_weight_to_fp16, mean = instruments_1_down3_act_0_running_mean_to_fp16, variance = instruments_1_down3_act_0_running_var_to_fp16, x = input_109_cast_fp16)[name = tensor<string, []>("input_111_cast_fp16")];
            tensor<fp16, [1, 64, 64, 128]> input_113_cast_fp16 = elu(alpha = var_317_to_fp16, x = input_111_cast_fp16)[name = tensor<string, []>("input_113_cast_fp16")];
            tensor<int32, [8]> input_115_pad_0 = const()[name = tensor<string, []>("input_115_pad_0"), val = tensor<int32, [8]>([0, 0, 0, 0, 1, 2, 1, 2])];
            tensor<string, []> input_115_mode_0 = const()[name = tensor<string, []>("input_115_mode_0"), val = tensor<string, []>("constant")];
            tensor<fp16, []> const_14_to_fp16 = const()[name = tensor<string, []>("const_14_to_fp16"), val = tensor<fp16, []>(0x0p+0)];
            tensor<fp16, [1, 64, 67, 131]> input_115_cast_fp16 = pad(constant_val = const_14_to_fp16, mode = input_115_mode_0, pad = input_115_pad_0, x = input_113_cast_fp16)[name = tensor<string, []>("input_115_cast_fp16")];
            tensor<string, []> input_117_pad_type_0 = const()[name = tensor<string, []>("input_117_pad_type_0"), val = tensor<string, []>("valid")];
            tensor<int32, [2]> input_117_strides_0 = const()[name = tensor<string, []>("input_117_strides_0"), val = tensor<int32, [2]>([2, 2])];
            tensor<int32, [4]> input_117_pad_0 = const()[name = tensor<string, []>("input_117_pad_0"), val = tensor<int32, [4]>([0, 0, 0, 0])];
            tensor<int32, [2]> input_117_dilations_0 = const()[name = tensor<string, []>("input_117_dilations_0"), val = tensor<int32, [2]>([1, 1])];
            tensor<int32, []> input_117_groups_0 = const()[name = tensor<string, []>("input_117_groups_0"), val = tensor<int32, []>(1)];
            tensor<fp16, [128, 64, 5, 5]> instruments_1_down4_conv_1_weight_to_fp16 = const()[name = tensor<string, []>("instruments_1_down4_conv_1_weight_to_fp16"), val = tensor<fp16, [128, 64, 5, 5]>(BLOBFILE(path = tensor<string, []>("@model_path/weights/weight.bin"), offset = tensor<uint64, []>(19784128)))];
            tensor<fp16, [128]> instruments_1_down4_conv_1_bias_to_fp16 = const()[name = tensor<string, []>("instruments_1_down4_conv_1_bias_to_fp16"), val = tensor<fp16, [128]>(BLOBFILE(path = tensor<string, []>("@model_path/weights/weight.bin"), offset = tensor<uint64, []>(20193792)))];
            tensor<fp16, [1, 128, 32, 64]> input_117_cast_fp16 = conv(bias = instruments_1_down4_conv_1_bias_to_fp16, dilations = input_117_dilations_0, groups = input_117_groups_0, pad = input_117_pad_0, pad_type = input_117_pad_type_0, strides = input_117_strides_0, weight = instruments_1_down4_conv_1_weight_to_fp16, x = input_115_cast_fp16)[name = tensor<string, []>("input_117_cast_fp16")];
            tensor<fp16, [128]> instruments_1_down4_act_0_weight_to_fp16 = const()[name = tensor<string, []>("instruments_1_down4_act_0_weight_to_fp16"), val = tensor<fp16, [128]>(BLOBFILE(path = tensor<string, []>("@model_path/weights/weight.bin"), offset = tensor<uint64, []>(20194112)))];
            tensor<fp16, [128]> instruments_1_down4_act_0_bias_to_fp16 = const()[name = tensor<string, []>("instruments_1_down4_act_0_bias_to_fp16"), val = tensor<fp16, [128]>(BLOBFILE(path = tensor<string, []>("@model_path/weights/weight.bin"), offset = tensor<uint64, []>(20194432)))];
            tensor<fp16, [1, 128, 32, 64]> input_119_cast_fp16 = batch_norm(beta = instruments_1_down4_act_0_bias_to_fp16, epsilon = var_315_to_fp16, gamma = instruments_1_down4_act_0_weight_to_fp16, mean = instruments_0_down4_act_0_running_mean_to_fp16, variance = instruments_0_down4_act_0_running_var_to_fp16, x = input_117_cast_fp16)[name = tensor<string, []>("input_119_cast_fp16")];
            tensor<fp16, [1, 128, 32, 64]> input_121_cast_fp16 = elu(alpha = var_317_to_fp16, x = input_119_cast_fp16)[name = tensor<string, []>("input_121_cast_fp16")];
            tensor<int32, [8]> input_123_pad_0 = const()[name = tensor<string, []>("input_123_pad_0"), val = tensor<int32, [8]>([0, 0, 0, 0, 1, 2, 1, 2])];
            tensor<string, []> input_123_mode_0 = const()[name = tensor<string, []>("input_123_mode_0"), val = tensor<string, []>("constant")];
            tensor<fp16, []> const_15_to_fp16 = const()[name = tensor<string, []>("const_15_to_fp16"), val = tensor<fp16, []>(0x0p+0)];
            tensor<fp16, [1, 128, 35, 67]> input_123_cast_fp16 = pad(constant_val = const_15_to_fp16, mode = input_123_mode_0, pad = input_123_pad_0, x = input_121_cast_fp16)[name = tensor<string, []>("input_123_cast_fp16")];
            tensor<string, []> input_125_pad_type_0 = const()[name = tensor<string, []>("input_125_pad_type_0"), val = tensor<string, []>("valid")];
            tensor<int32, [2]> input_125_strides_0 = const()[name = tensor<string, []>("input_125_strides_0"), val = tensor<int32, [2]>([2, 2])];
            tensor<int32, [4]> input_125_pad_0 = const()[name = tensor<string, []>("input_125_pad_0"), val = tensor<int32, [4]>([0, 0, 0, 0])];
            tensor<int32, [2]> input_125_dilations_0 = const()[name = tensor<string, []>("input_125_dilations_0"), val = tensor<int32, [2]>([1, 1])];
            tensor<int32, []> input_125_groups_0 = const()[name = tensor<string, []>("input_125_groups_0"), val = tensor<int32, []>(1)];
            tensor<fp16, [256, 128, 5, 5]> instruments_1_down5_conv_1_weight_to_fp16 = const()[name = tensor<string, []>("instruments_1_down5_conv_1_weight_to_fp16"), val = tensor<fp16, [256, 128, 5, 5]>(BLOBFILE(path = tensor<string, []>("@model_path/weights/weight.bin"), offset = tensor<uint64, []>(20194752)))];
            tensor<fp16, [256]> instruments_1_down5_conv_1_bias_to_fp16 = const()[name = tensor<string, []>("instruments_1_down5_conv_1_bias_to_fp16"), val = tensor<fp16, [256]>(BLOBFILE(path = tensor<string, []>("@model_path/weights/weight.bin"), offset = tensor<uint64, []>(21833216)))];
            tensor<fp16, [1, 256, 16, 32]> input_125_cast_fp16 = conv(bias = instruments_1_down5_conv_1_bias_to_fp16, dilations = input_125_dilations_0, groups = input_125_groups_0, pad = input_125_pad_0, pad_type = input_125_pad_type_0, strides = input_125_strides_0, weight = instruments_1_down5_conv_1_weight_to_fp16, x = input_123_cast_fp16)[name = tensor<string, []>("input_125_cast_fp16")];
            tensor<fp16, [256]> instruments_1_down5_act_0_weight_to_fp16 = const()[name = tensor<string, []>("instruments_1_down5_act_0_weight_to_fp16"), val = tensor<fp16, [256]>(BLOBFILE(path = tensor<string, []>("@model_path/weights/weight.bin"), offset = tensor<uint64, []>(21833792)))];
            tensor<fp16, [256]> instruments_1_down5_act_0_bias_to_fp16 = const()[name = tensor<string, []>("instruments_1_down5_act_0_bias_to_fp16"), val = tensor<fp16, [256]>(BLOBFILE(path = tensor<string, []>("@model_path/weights/weight.bin"), offset = tensor<uint64, []>(21834368)))];
            tensor<fp16, [1, 256, 16, 32]> input_127_cast_fp16 = batch_norm(beta = instruments_1_down5_act_0_bias_to_fp16, epsilon = var_315_to_fp16, gamma = instruments_1_down5_act_0_weight_to_fp16, mean = instruments_0_down5_act_0_running_mean_to_fp16, variance = instruments_0_down5_act_0_running_var_to_fp16, x = input_125_cast_fp16)[name = tensor<string, []>("input_127_cast_fp16")];
            tensor<fp16, [1, 256, 16, 32]> input_129_cast_fp16 = elu(alpha = var_317_to_fp16, x = input_127_cast_fp16)[name = tensor<string, []>("input_129_cast_fp16")];
            tensor<int32, [8]> input_131_pad_0 = const()[name = tensor<string, []>("input_131_pad_0"), val = tensor<int32, [8]>([0, 0, 0, 0, 1, 2, 1, 2])];
            tensor<string, []> input_131_mode_0 = const()[name = tensor<string, []>("input_131_mode_0"), val = tensor<string, []>("constant")];
            tensor<fp16, []> const_16_to_fp16 = const()[name = tensor<string, []>("const_16_to_fp16"), val = tensor<fp16, []>(0x0p+0)];
            tensor<fp16, [1, 256, 19, 35]> input_131_cast_fp16 = pad(constant_val = const_16_to_fp16, mode = input_131_mode_0, pad = input_131_pad_0, x = input_129_cast_fp16)[name = tensor<string, []>("input_131_cast_fp16")];
            tensor<string, []> input_133_pad_type_0 = const()[name = tensor<string, []>("input_133_pad_type_0"), val = tensor<string, []>("valid")];
            tensor<int32, [2]> input_133_strides_0 = const()[name = tensor<string, []>("input_133_strides_0"), val = tensor<int32, [2]>([2, 2])];
            tensor<int32, [4]> input_133_pad_0 = const()[name = tensor<string, []>("input_133_pad_0"), val = tensor<int32, [4]>([0, 0, 0, 0])];
            tensor<int32, [2]> input_133_dilations_0 = const()[name = tensor<string, []>("input_133_dilations_0"), val = tensor<int32, [2]>([1, 1])];
            tensor<int32, []> input_133_groups_0 = const()[name = tensor<string, []>("input_133_groups_0"), val = tensor<int32, []>(1)];
            tensor<fp16, [512, 256, 5, 5]> instruments_1_down6_conv_1_weight_to_fp16 = const()[name = tensor<string, []>("instruments_1_down6_conv_1_weight_to_fp16"), val = tensor<fp16, [512, 256, 5, 5]>(BLOBFILE(path = tensor<string, []>("@model_path/weights/weight.bin"), offset = tensor<uint64, []>(21834944)))];
            tensor<fp16, [512]> instruments_1_down6_conv_1_bias_to_fp16 = const()[name = tensor<string, []>("instruments_1_down6_conv_1_bias_to_fp16"), val = tensor<fp16, [512]>(BLOBFILE(path = tensor<string, []>("@model_path/weights/weight.bin"), offset = tensor<uint64, []>(28388608)))];
            tensor<fp16, [1, 512, 8, 16]> input_133_cast_fp16 = conv(bias = instruments_1_down6_conv_1_bias_to_fp16, dilations = input_133_dilations_0, groups = input_133_groups_0, pad = input_133_pad_0, pad_type = input_133_pad_type_0, strides = input_133_strides_0, weight = instruments_1_down6_conv_1_weight_to_fp16, x = input_131_cast_fp16)[name = tensor<string, []>("input_133_cast_fp16")];
            tensor<string, []> x_13_pad_type_0 = const()[name = tensor<string, []>("x_13_pad_type_0"), val = tensor<string, []>("valid")];
            tensor<int32, [2]> x_13_strides_0 = const()[name = tensor<string, []>("x_13_strides_0"), val = tensor<int32, [2]>([2, 2])];
            tensor<int32, [4]> x_13_pad_0 = const()[name = tensor<string, []>("x_13_pad_0"), val = tensor<int32, [4]>([0, 0, 0, 0])];
            tensor<int32, [2]> x_13_dilations_0 = const()[name = tensor<string, []>("x_13_dilations_0"), val = tensor<int32, [2]>([1, 1])];
            tensor<int32, []> x_13_groups_0 = const()[name = tensor<string, []>("x_13_groups_0"), val = tensor<int32, []>(1)];
            tensor<int32, [4]> x_13_has_output_shape_output_shape_0 = const()[name = tensor<string, []>("x_13_has_output_shape_output_shape_0"), val = tensor<int32, [4]>([1, 256, 19, 35])];
            tensor<fp16, [512, 256, 5, 5]> instruments_1_up1_0_weight_to_fp16 = const()[name = tensor<string, []>("instruments_1_up1_0_weight_to_fp16"), val = tensor<fp16, [512, 256, 5, 5]>(BLOBFILE(path = tensor<string, []>("@model_path/weights/weight.bin"), offset = tensor<uint64, []>(28389696)))];
            tensor<fp16, [256]> instruments_1_up1_0_bias_to_fp16 = const()[name = tensor<string, []>("instruments_1_up1_0_bias_to_fp16"), val = tensor<fp16, [256]>(BLOBFILE(path = tensor<string, []>("@model_path/weights/weight.bin"), offset = tensor<uint64, []>(34943360)))];
            tensor<fp16, [1, 256, 19, 35]> x_13_has_output_shape_cast_fp16 = conv_transpose(bias = instruments_1_up1_0_bias_to_fp16, dilations = x_13_dilations_0, groups = x_13_groups_0, output_shape = x_13_has_output_shape_output_shape_0, pad = x_13_pad_0, pad_type = x_13_pad_type_0, strides = x_13_strides_0, weight = instruments_1_up1_0_weight_to_fp16, x = input_133_cast_fp16)[name = tensor<string, []>("x_13_has_output_shape_cast_fp16")];
            tensor<int32, [4]> var_449_begin_0 = const()[name = tensor<string, []>("op_449_begin_0"), val = tensor<int32, [4]>([0, 0, 1, 0])];
            tensor<int32, [4]> var_449_end_0 = const()[name = tensor<string, []>("op_449_end_0"), val = tensor<int32, [4]>([1, 256, 17, 35])];
            tensor<bool, [4]> var_449_end_mask_0 = const()[name = tensor<string, []>("op_449_end_mask_0"), val = tensor<bool, [4]>([true, true, false, true])];
            tensor<fp16, [1, 256, 16, 35]> var_449_cast_fp16 = slice_by_index(begin = var_449_begin_0, end = var_449_end_0, end_mask = var_449_end_mask_0, x = x_13_has_output_shape_cast_fp16)[name = tensor<string, []>("op_449_cast_fp16")];
            tensor<int32, [4]> input_137_begin_0 = const()[name = tensor<string, []>("input_137_begin_0"), val = tensor<int32, [4]>([0, 0, 0, 1])];
            tensor<int32, [4]> input_137_end_0 = const()[name = tensor<string, []>("input_137_end_0"), val = tensor<int32, [4]>([1, 256, 16, 33])];
            tensor<bool, [4]> input_137_end_mask_0 = const()[name = tensor<string, []>("input_137_end_mask_0"), val = tensor<bool, [4]>([true, true, true, false])];
            tensor<fp16, [1, 256, 16, 32]> input_137_cast_fp16 = slice_by_index(begin = input_137_begin_0, end = input_137_end_0, end_mask = input_137_end_mask_0, x = var_449_cast_fp16)[name = tensor<string, []>("input_137_cast_fp16")];
            tensor<fp16, [1, 256, 16, 32]> input_139_cast_fp16 = elu(alpha = var_317_to_fp16, x = input_137_cast_fp16)[name = tensor<string, []>("input_139_cast_fp16")];
            tensor<fp16, [256]> instruments_1_up1_3_weight_to_fp16 = const()[name = tensor<string, []>("instruments_1_up1_3_weight_to_fp16"), val = tensor<fp16, [256]>(BLOBFILE(path = tensor<string, []>("@model_path/weights/weight.bin"), offset = tensor<uint64, []>(34943936)))];
            tensor<fp16, [256]> instruments_1_up1_3_bias_to_fp16 = const()[name = tensor<string, []>("instruments_1_up1_3_bias_to_fp16"), val = tensor<fp16, [256]>(BLOBFILE(path = tensor<string, []>("@model_path/weights/weight.bin"), offset = tensor<uint64, []>(34944512)))];
            tensor<fp16, [1, 256, 16, 32]> input_141_cast_fp16 = batch_norm(beta = instruments_1_up1_3_bias_to_fp16, epsilon = var_315_to_fp16, gamma = instruments_1_up1_3_weight_to_fp16, mean = instruments_0_down5_act_0_running_mean_to_fp16, variance = instruments_0_down5_act_0_running_var_to_fp16, x = input_139_cast_fp16)[name = tensor<string, []>("input_141_cast_fp16")];
            tensor<bool, []> input_143_interleave_0 = const()[name = tensor<string, []>("input_143_interleave_0"), val = tensor<bool, []>(false)];
            tensor<fp16, [1, 512, 16, 32]> input_143_cast_fp16 = concat(axis = var_321, interleave = input_143_interleave_0, values = (input_125_cast_fp16, input_141_cast_fp16))[name = tensor<string, []>("input_143_cast_fp16")];
            tensor<string, []> x_15_pad_type_0 = const()[name = tensor<string, []>("x_15_pad_type_0"), val = tensor<string, []>("valid")];
            tensor<int32, [2]> x_15_strides_0 = const()[name = tensor<string, []>("x_15_strides_0"), val = tensor<int32, [2]>([2, 2])];
            tensor<int32, [4]> x_15_pad_0 = const()[name = tensor<string, []>("x_15_pad_0"), val = tensor<int32, [4]>([0, 0, 0, 0])];
            tensor<int32, [2]> x_15_dilations_0 = const()[name = tensor<string, []>("x_15_dilations_0"), val = tensor<int32, [2]>([1, 1])];
            tensor<int32, []> x_15_groups_0 = const()[name = tensor<string, []>("x_15_groups_0"), val = tensor<int32, []>(1)];
            tensor<int32, [4]> x_15_has_output_shape_output_shape_0 = const()[name = tensor<string, []>("x_15_has_output_shape_output_shape_0"), val = tensor<int32, [4]>([1, 128, 35, 67])];
            tensor<fp16, [512, 128, 5, 5]> instruments_1_up2_0_weight_to_fp16 = const()[name = tensor<string, []>("instruments_1_up2_0_weight_to_fp16"), val = tensor<fp16, [512, 128, 5, 5]>(BLOBFILE(path = tensor<string, []>("@model_path/weights/weight.bin"), offset = tensor<uint64, []>(34945088)))];
            tensor<fp16, [128]> instruments_1_up2_0_bias_to_fp16 = const()[name = tensor<string, []>("instruments_1_up2_0_bias_to_fp16"), val = tensor<fp16, [128]>(BLOBFILE(path = tensor<string, []>("@model_path/weights/weight.bin"), offset = tensor<uint64, []>(38221952)))];
            tensor<fp16, [1, 128, 35, 67]> x_15_has_output_shape_cast_fp16 = conv_transpose(bias = instruments_1_up2_0_bias_to_fp16, dilations = x_15_dilations_0, groups = x_15_groups_0, output_shape = x_15_has_output_shape_output_shape_0, pad = x_15_pad_0, pad_type = x_15_pad_type_0, strides = x_15_strides_0, weight = instruments_1_up2_0_weight_to_fp16, x = input_143_cast_fp16)[name = tensor<string, []>("x_15_has_output_shape_cast_fp16")];
            tensor<int32, [4]> var_471_begin_0 = const()[name = tensor<string, []>("op_471_begin_0"), val = tensor<int32, [4]>([0, 0, 1, 0])];
            tensor<int32, [4]> var_471_end_0 = const()[name = tensor<string, []>("op_471_end_0"), val = tensor<int32, [4]>([1, 128, 33, 67])];
            tensor<bool, [4]> var_471_end_mask_0 = const()[name = tensor<string, []>("op_471_end_mask_0"), val = tensor<bool, [4]>([true, true, false, true])];
            tensor<fp16, [1, 128, 32, 67]> var_471_cast_fp16 = slice_by_index(begin = var_471_begin_0, end = var_471_end_0, end_mask = var_471_end_mask_0, x = x_15_has_output_shape_cast_fp16)[name = tensor<string, []>("op_471_cast_fp16")];
            tensor<int32, [4]> input_145_begin_0 = const()[name = tensor<string, []>("input_145_begin_0"), val = tensor<int32, [4]>([0, 0, 0, 1])];
            tensor<int32, [4]> input_145_end_0 = const()[name = tensor<string, []>("input_145_end_0"), val = tensor<int32, [4]>([1, 128, 32, 65])];
            tensor<bool, [4]> input_145_end_mask_0 = const()[name = tensor<string, []>("input_145_end_mask_0"), val = tensor<bool, [4]>([true, true, true, false])];
            tensor<fp16, [1, 128, 32, 64]> input_145_cast_fp16 = slice_by_index(begin = input_145_begin_0, end = input_145_end_0, end_mask = input_145_end_mask_0, x = var_471_cast_fp16)[name = tensor<string, []>("input_145_cast_fp16")];
            tensor<fp16, [1, 128, 32, 64]> input_147_cast_fp16 = elu(alpha = var_317_to_fp16, x = input_145_cast_fp16)[name = tensor<string, []>("input_147_cast_fp16")];
            tensor<fp16, [128]> instruments_1_up2_3_weight_to_fp16 = const()[name = tensor<string, []>("instruments_1_up2_3_weight_to_fp16"), val = tensor<fp16, [128]>(BLOBFILE(path = tensor<string, []>("@model_path/weights/weight.bin"), offset = tensor<uint64, []>(38222272)))];
            tensor<fp16, [128]> instruments_1_up2_3_bias_to_fp16 = const()[name = tensor<string, []>("instruments_1_up2_3_bias_to_fp16"), val = tensor<fp16, [128]>(BLOBFILE(path = tensor<string, []>("@model_path/weights/weight.bin"), offset = tensor<uint64, []>(38222592)))];
            tensor<fp16, [1, 128, 32, 64]> input_149_cast_fp16 = batch_norm(beta = instruments_1_up2_3_bias_to_fp16, epsilon = var_315_to_fp16, gamma = instruments_1_up2_3_weight_to_fp16, mean = instruments_0_down4_act_0_running_mean_to_fp16, variance = instruments_0_down4_act_0_running_var_to_fp16, x = input_147_cast_fp16)[name = tensor<string, []>("input_149_cast_fp16")];
            tensor<bool, []> input_151_interleave_0 = const()[name = tensor<string, []>("input_151_interleave_0"), val = tensor<bool, []>(false)];
            tensor<fp16, [1, 256, 32, 64]> input_151_cast_fp16 = concat(axis = var_321, interleave = input_151_interleave_0, values = (input_117_cast_fp16, input_149_cast_fp16))[name = tensor<string, []>("input_151_cast_fp16")];
            tensor<string, []> x_17_pad_type_0 = const()[name = tensor<string, []>("x_17_pad_type_0"), val = tensor<string, []>("valid")];
            tensor<int32, [2]> x_17_strides_0 = const()[name = tensor<string, []>("x_17_strides_0"), val = tensor<int32, [2]>([2, 2])];
            tensor<int32, [4]> x_17_pad_0 = const()[name = tensor<string, []>("x_17_pad_0"), val = tensor<int32, [4]>([0, 0, 0, 0])];
            tensor<int32, [2]> x_17_dilations_0 = const()[name = tensor<string, []>("x_17_dilations_0"), val = tensor<int32, [2]>([1, 1])];
            tensor<int32, []> x_17_groups_0 = const()[name = tensor<string, []>("x_17_groups_0"), val = tensor<int32, []>(1)];
            tensor<int32, [4]> x_17_has_output_shape_output_shape_0 = const()[name = tensor<string, []>("x_17_has_output_shape_output_shape_0"), val = tensor<int32, [4]>([1, 64, 67, 131])];
            tensor<fp16, [256, 64, 5, 5]> instruments_1_up3_0_weight_to_fp16 = const()[name = tensor<string, []>("instruments_1_up3_0_weight_to_fp16"), val = tensor<fp16, [256, 64, 5, 5]>(BLOBFILE(path = tensor<string, []>("@model_path/weights/weight.bin"), offset = tensor<uint64, []>(38222912)))];
            tensor<fp16, [64]> instruments_1_up3_0_bias_to_fp16 = const()[name = tensor<string, []>("instruments_1_up3_0_bias_to_fp16"), val = tensor<fp16, [64]>(BLOBFILE(path = tensor<string, []>("@model_path/weights/weight.bin"), offset = tensor<uint64, []>(39042176)))];
            tensor<fp16, [1, 64, 67, 131]> x_17_has_output_shape_cast_fp16 = conv_transpose(bias = instruments_1_up3_0_bias_to_fp16, dilations = x_17_dilations_0, groups = x_17_groups_0, output_shape = x_17_has_output_shape_output_shape_0, pad = x_17_pad_0, pad_type = x_17_pad_type_0, strides = x_17_strides_0, weight = instruments_1_up3_0_weight_to_fp16, x = input_151_cast_fp16)[name = tensor<string, []>("x_17_has_output_shape_cast_fp16")];
            tensor<int32, [4]> var_493_begin_0 = const()[name = tensor<string, []>("op_493_begin_0"), val = tensor<int32, [4]>([0, 0, 1, 0])];
            tensor<int32, [4]> var_493_end_0 = const()[name = tensor<string, []>("op_493_end_0"), val = tensor<int32, [4]>([1, 64, 65, 131])];
            tensor<bool, [4]> var_493_end_mask_0 = const()[name = tensor<string, []>("op_493_end_mask_0"), val = tensor<bool, [4]>([true, true, false, true])];
            tensor<fp16, [1, 64, 64, 131]> var_493_cast_fp16 = slice_by_index(begin = var_493_begin_0, end = var_493_end_0, end_mask = var_493_end_mask_0, x = x_17_has_output_shape_cast_fp16)[name = tensor<string, []>("op_493_cast_fp16")];
            tensor<int32, [4]> input_153_begin_0 = const()[name = tensor<string, []>("input_153_begin_0"), val = tensor<int32, [4]>([0, 0, 0, 1])];
            tensor<int32, [4]> input_153_end_0 = const()[name = tensor<string, []>("input_153_end_0"), val = tensor<int32, [4]>([1, 64, 64, 129])];
            tensor<bool, [4]> input_153_end_mask_0 = const()[name = tensor<string, []>("input_153_end_mask_0"), val = tensor<bool, [4]>([true, true, true, false])];
            tensor<fp16, [1, 64, 64, 128]> input_153_cast_fp16 = slice_by_index(begin = input_153_begin_0, end = input_153_end_0, end_mask = input_153_end_mask_0, x = var_493_cast_fp16)[name = tensor<string, []>("input_153_cast_fp16")];
            tensor<fp16, [1, 64, 64, 128]> input_155_cast_fp16 = elu(alpha = var_317_to_fp16, x = input_153_cast_fp16)[name = tensor<string, []>("input_155_cast_fp16")];
            tensor<fp16, [64]> instruments_1_up3_3_running_mean_to_fp16 = const()[name = tensor<string, []>("instruments_1_up3_3_running_mean_to_fp16"), val = tensor<fp16, [64]>(BLOBFILE(path = tensor<string, []>("@model_path/weights/weight.bin"), offset = tensor<uint64, []>(39042368)))];
            tensor<fp16, [64]> instruments_1_up3_3_running_var_to_fp16 = const()[name = tensor<string, []>("instruments_1_up3_3_running_var_to_fp16"), val = tensor<fp16, [64]>(BLOBFILE(path = tensor<string, []>("@model_path/weights/weight.bin"), offset = tensor<uint64, []>(39042560)))];
            tensor<fp16, [64]> instruments_1_up3_3_weight_to_fp16 = const()[name = tensor<string, []>("instruments_1_up3_3_weight_to_fp16"), val = tensor<fp16, [64]>(BLOBFILE(path = tensor<string, []>("@model_path/weights/weight.bin"), offset = tensor<uint64, []>(39042752)))];
            tensor<fp16, [64]> instruments_1_up3_3_bias_to_fp16 = const()[name = tensor<string, []>("instruments_1_up3_3_bias_to_fp16"), val = tensor<fp16, [64]>(BLOBFILE(path = tensor<string, []>("@model_path/weights/weight.bin"), offset = tensor<uint64, []>(39042944)))];
            tensor<fp16, [1, 64, 64, 128]> input_157_cast_fp16 = batch_norm(beta = instruments_1_up3_3_bias_to_fp16, epsilon = var_315_to_fp16, gamma = instruments_1_up3_3_weight_to_fp16, mean = instruments_1_up3_3_running_mean_to_fp16, variance = instruments_1_up3_3_running_var_to_fp16, x = input_155_cast_fp16)[name = tensor<string, []>("input_157_cast_fp16")];
            tensor<bool, []> input_159_interleave_0 = const()[name = tensor<string, []>("input_159_interleave_0"), val = tensor<bool, []>(false)];
            tensor<fp16, [1, 128, 64, 128]> input_159_cast_fp16 = concat(axis = var_321, interleave = input_159_interleave_0, values = (input_109_cast_fp16, input_157_cast_fp16))[name = tensor<string, []>("input_159_cast_fp16")];
            tensor<string, []> x_19_pad_type_0 = const()[name = tensor<string, []>("x_19_pad_type_0"), val = tensor<string, []>("valid")];
            tensor<int32, [2]> x_19_strides_0 = const()[name = tensor<string, []>("x_19_strides_0"), val = tensor<int32, [2]>([2, 2])];
            tensor<int32, [4]> x_19_pad_0 = const()[name = tensor<string, []>("x_19_pad_0"), val = tensor<int32, [4]>([0, 0, 0, 0])];
            tensor<int32, [2]> x_19_dilations_0 = const()[name = tensor<string, []>("x_19_dilations_0"), val = tensor<int32, [2]>([1, 1])];
            tensor<int32, []> x_19_groups_0 = const()[name = tensor<string, []>("x_19_groups_0"), val = tensor<int32, []>(1)];
            tensor<int32, [4]> x_19_has_output_shape_output_shape_0 = const()[name = tensor<string, []>("x_19_has_output_shape_output_shape_0"), val = tensor<int32, [4]>([1, 32, 131, 259])];
            tensor<fp16, [128, 32, 5, 5]> instruments_1_up4_0_weight_to_fp16 = const()[name = tensor<string, []>("instruments_1_up4_0_weight_to_fp16"), val = tensor<fp16, [128, 32, 5, 5]>(BLOBFILE(path = tensor<string, []>("@model_path/weights/weight.bin"), offset = tensor<uint64, []>(39043136)))];
            tensor<fp16, [32]> instruments_1_up4_0_bias_to_fp16 = const()[name = tensor<string, []>("instruments_1_up4_0_bias_to_fp16"), val = tensor<fp16, [32]>(BLOBFILE(path = tensor<string, []>("@model_path/weights/weight.bin"), offset = tensor<uint64, []>(39248000)))];
            tensor<fp16, [1, 32, 131, 259]> x_19_has_output_shape_cast_fp16 = conv_transpose(bias = instruments_1_up4_0_bias_to_fp16, dilations = x_19_dilations_0, groups = x_19_groups_0, output_shape = x_19_has_output_shape_output_shape_0, pad = x_19_pad_0, pad_type = x_19_pad_type_0, strides = x_19_strides_0, weight = instruments_1_up4_0_weight_to_fp16, x = input_159_cast_fp16)[name = tensor<string, []>("x_19_has_output_shape_cast_fp16")];
            tensor<int32, [4]> var_515_begin_0 = const()[name = tensor<string, []>("op_515_begin_0"), val = tensor<int32, [4]>([0, 0, 1, 0])];
            tensor<int32, [4]> var_515_end_0 = const()[name = tensor<string, []>("op_515_end_0"), val = tensor<int32, [4]>([1, 32, 129, 259])];
            tensor<bool, [4]> var_515_end_mask_0 = const()[name = tensor<string, []>("op_515_end_mask_0"), val = tensor<bool, [4]>([true, true, false, true])];
            tensor<fp16, [1, 32, 128, 259]> var_515_cast_fp16 = slice_by_index(begin = var_515_begin_0, end = var_515_end_0, end_mask = var_515_end_mask_0, x = x_19_has_output_shape_cast_fp16)[name = tensor<string, []>("op_515_cast_fp16")];
            tensor<int32, [4]> input_161_begin_0 = const()[name = tensor<string, []>("input_161_begin_0"), val = tensor<int32, [4]>([0, 0, 0, 1])];
            tensor<int32, [4]> input_161_end_0 = const()[name = tensor<string, []>("input_161_end_0"), val = tensor<int32, [4]>([1, 32, 128, 257])];
            tensor<bool, [4]> input_161_end_mask_0 = const()[name = tensor<string, []>("input_161_end_mask_0"), val = tensor<bool, [4]>([true, true, true, false])];
            tensor<fp16, [1, 32, 128, 256]> input_161_cast_fp16 = slice_by_index(begin = input_161_begin_0, end = input_161_end_0, end_mask = input_161_end_mask_0, x = var_515_cast_fp16)[name = tensor<string, []>("input_161_cast_fp16")];
            tensor<fp16, [1, 32, 128, 256]> input_163_cast_fp16 = elu(alpha = var_317_to_fp16, x = input_161_cast_fp16)[name = tensor<string, []>("input_163_cast_fp16")];
            tensor<fp16, [32]> instruments_1_up4_3_running_mean_to_fp16 = const()[name = tensor<string, []>("instruments_1_up4_3_running_mean_to_fp16"), val = tensor<fp16, [32]>(BLOBFILE(path = tensor<string, []>("@model_path/weights/weight.bin"), offset = tensor<uint64, []>(39248128)))];
            tensor<fp16, [32]> instruments_1_up4_3_running_var_to_fp16 = const()[name = tensor<string, []>("instruments_1_up4_3_running_var_to_fp16"), val = tensor<fp16, [32]>(BLOBFILE(path = tensor<string, []>("@model_path/weights/weight.bin"), offset = tensor<uint64, []>(39248256)))];
            tensor<fp16, [32]> instruments_1_up4_3_weight_to_fp16 = const()[name = tensor<string, []>("instruments_1_up4_3_weight_to_fp16"), val = tensor<fp16, [32]>(BLOBFILE(path = tensor<string, []>("@model_path/weights/weight.bin"), offset = tensor<uint64, []>(39248384)))];
            tensor<fp16, [32]> instruments_1_up4_3_bias_to_fp16 = const()[name = tensor<string, []>("instruments_1_up4_3_bias_to_fp16"), val = tensor<fp16, [32]>(BLOBFILE(path = tensor<string, []>("@model_path/weights/weight.bin"), offset = tensor<uint64, []>(39248512)))];
            tensor<fp16, [1, 32, 128, 256]> u4_3_cast_fp16 = batch_norm(beta = instruments_1_up4_3_bias_to_fp16, epsilon = var_315_to_fp16, gamma = instruments_1_up4_3_weight_to_fp16, mean = instruments_1_up4_3_running_mean_to_fp16, variance = instruments_1_up4_3_running_var_to_fp16, x = input_163_cast_fp16)[name = tensor<string, []>("u4_3_cast_fp16")];
            tensor<bool, []> input_165_interleave_0 = const()[name = tensor<string, []>("input_165_interleave_0"), val = tensor<bool, []>(false)];
            tensor<fp16, [1, 64, 128, 256]> input_165_cast_fp16 = concat(axis = var_321, interleave = input_165_interleave_0, values = (input_101_cast_fp16, u4_3_cast_fp16))[name = tensor<string, []>("input_165_cast_fp16")];
            tensor<string, []> x_21_pad_type_0 = const()[name = tensor<string, []>("x_21_pad_type_0"), val = tensor<string, []>("valid")];
            tensor<int32, [2]> x_21_strides_0 = const()[name = tensor<string, []>("x_21_strides_0"), val = tensor<int32, [2]>([2, 2])];
            tensor<int32, [4]> x_21_pad_0 = const()[name = tensor<string, []>("x_21_pad_0"), val = tensor<int32, [4]>([0, 0, 0, 0])];
            tensor<int32, [2]> x_21_dilations_0 = const()[name = tensor<string, []>("x_21_dilations_0"), val = tensor<int32, [2]>([1, 1])];
            tensor<int32, []> x_21_groups_0 = const()[name = tensor<string, []>("x_21_groups_0"), val = tensor<int32, []>(1)];
            tensor<int32, [4]> x_21_has_output_shape_output_shape_0 = const()[name = tensor<string, []>("x_21_has_output_shape_output_shape_0"), val = tensor<int32, [4]>([1, 16, 259, 515])];
            tensor<fp16, [64, 16, 5, 5]> instruments_1_up5_0_weight_to_fp16 = const()[name = tensor<string, []>("instruments_1_up5_0_weight_to_fp16"), val = tensor<fp16, [64, 16, 5, 5]>(BLOBFILE(path = tensor<string, []>("@model_path/weights/weight.bin"), offset = tensor<uint64, []>(39248640)))];
            tensor<fp16, [16]> instruments_1_up5_0_bias_to_fp16 = const()[name = tensor<string, []>("instruments_1_up5_0_bias_to_fp16"), val = tensor<fp16, [16]>(BLOBFILE(path = tensor<string, []>("@model_path/weights/weight.bin"), offset = tensor<uint64, []>(39299904)))];
            tensor<fp16, [1, 16, 259, 515]> x_21_has_output_shape_cast_fp16 = conv_transpose(bias = instruments_1_up5_0_bias_to_fp16, dilations = x_21_dilations_0, groups = x_21_groups_0, output_shape = x_21_has_output_shape_output_shape_0, pad = x_21_pad_0, pad_type = x_21_pad_type_0, strides = x_21_strides_0, weight = instruments_1_up5_0_weight_to_fp16, x = input_165_cast_fp16)[name = tensor<string, []>("x_21_has_output_shape_cast_fp16")];
            tensor<int32, [4]> var_536_begin_0 = const()[name = tensor<string, []>("op_536_begin_0"), val = tensor<int32, [4]>([0, 0, 1, 0])];
            tensor<int32, [4]> var_536_end_0 = const()[name = tensor<string, []>("op_536_end_0"), val = tensor<int32, [4]>([1, 16, 257, 515])];
            tensor<bool, [4]> var_536_end_mask_0 = const()[name = tensor<string, []>("op_536_end_mask_0"), val = tensor<bool, [4]>([true, true, false, true])];
            tensor<fp16, [1, 16, 256, 515]> var_536_cast_fp16 = slice_by_index(begin = var_536_begin_0, end = var_536_end_0, end_mask = var_536_end_mask_0, x = x_21_has_output_shape_cast_fp16)[name = tensor<string, []>("op_536_cast_fp16")];
            tensor<int32, [4]> input_167_begin_0 = const()[name = tensor<string, []>("input_167_begin_0"), val = tensor<int32, [4]>([0, 0, 0, 1])];
            tensor<int32, [4]> input_167_end_0 = const()[name = tensor<string, []>("input_167_end_0"), val = tensor<int32, [4]>([1, 16, 256, 513])];
            tensor<bool, [4]> input_167_end_mask_0 = const()[name = tensor<string, []>("input_167_end_mask_0"), val = tensor<bool, [4]>([true, true, true, false])];
            tensor<fp16, [1, 16, 256, 512]> input_167_cast_fp16 = slice_by_index(begin = input_167_begin_0, end = input_167_end_0, end_mask = input_167_end_mask_0, x = var_536_cast_fp16)[name = tensor<string, []>("input_167_cast_fp16")];
            tensor<fp16, [1, 16, 256, 512]> input_169_cast_fp16 = elu(alpha = var_317_to_fp16, x = input_167_cast_fp16)[name = tensor<string, []>("input_169_cast_fp16")];
            tensor<fp16, [16]> instruments_1_up5_3_running_mean_to_fp16 = const()[name = tensor<string, []>("instruments_1_up5_3_running_mean_to_fp16"), val = tensor<fp16, [16]>(BLOBFILE(path = tensor<string, []>("@model_path/weights/weight.bin"), offset = tensor<uint64, []>(39300032)))];
            tensor<fp16, [16]> instruments_1_up5_3_running_var_to_fp16 = const()[name = tensor<string, []>("instruments_1_up5_3_running_var_to_fp16"), val = tensor<fp16, [16]>(BLOBFILE(path = tensor<string, []>("@model_path/weights/weight.bin"), offset = tensor<uint64, []>(39300160)))];
            tensor<fp16, [16]> instruments_1_up5_3_weight_to_fp16 = const()[name = tensor<string, []>("instruments_1_up5_3_weight_to_fp16"), val = tensor<fp16, [16]>(BLOBFILE(path = tensor<string, []>("@model_path/weights/weight.bin"), offset = tensor<uint64, []>(39300288)))];
            tensor<fp16, [16]> instruments_1_up5_3_bias_to_fp16 = const()[name = tensor<string, []>("instruments_1_up5_3_bias_to_fp16"), val = tensor<fp16, [16]>(BLOBFILE(path = tensor<string, []>("@model_path/weights/weight.bin"), offset = tensor<uint64, []>(39300416)))];
            tensor<fp16, [1, 16, 256, 512]> u5_3_cast_fp16 = batch_norm(beta = instruments_1_up5_3_bias_to_fp16, epsilon = var_315_to_fp16, gamma = instruments_1_up5_3_weight_to_fp16, mean = instruments_1_up5_3_running_mean_to_fp16, variance = instruments_1_up5_3_running_var_to_fp16, x = input_169_cast_fp16)[name = tensor<string, []>("u5_3_cast_fp16")];
            tensor<bool, []> input_171_interleave_0 = const()[name = tensor<string, []>("input_171_interleave_0"), val = tensor<bool, []>(false)];
            tensor<fp16, [1, 32, 256, 512]> input_171_cast_fp16 = concat(axis = var_321, interleave = input_171_interleave_0, values = (input_93_cast_fp16, u5_3_cast_fp16))[name = tensor<string, []>("input_171_cast_fp16")];
            tensor<string, []> x_23_pad_type_0 = const()[name = tensor<string, []>("x_23_pad_type_0"), val = tensor<string, []>("valid")];
            tensor<int32, [2]> x_23_strides_0 = const()[name = tensor<string, []>("x_23_strides_0"), val = tensor<int32, [2]>([2, 2])];
            tensor<int32, [4]> x_23_pad_0 = const()[name = tensor<string, []>("x_23_pad_0"), val = tensor<int32, [4]>([0, 0, 0, 0])];
            tensor<int32, [2]> x_23_dilations_0 = const()[name = tensor<string, []>("x_23_dilations_0"), val = tensor<int32, [2]>([1, 1])];
            tensor<int32, []> x_23_groups_0 = const()[name = tensor<string, []>("x_23_groups_0"), val = tensor<int32, []>(1)];
            tensor<int32, [4]> x_23_has_output_shape_output_shape_0 = const()[name = tensor<string, []>("x_23_has_output_shape_output_shape_0"), val = tensor<int32, [4]>([1, 1, 515, 1027])];
            tensor<fp16, [32, 1, 5, 5]> instruments_1_up6_0_weight_to_fp16 = const()[name = tensor<string, []>("instruments_1_up6_0_weight_to_fp16"), val = tensor<fp16, [32, 1, 5, 5]>(BLOBFILE(path = tensor<string, []>("@model_path/weights/weight.bin"), offset = tensor<uint64, []>(39300544)))];
            tensor<fp16, [1]> instruments_1_up6_0_bias_to_fp16 = const()[name = tensor<string, []>("instruments_1_up6_0_bias_to_fp16"), val = tensor<fp16, [1]>([0x1.c78p-1])];
            tensor<fp16, [1, 1, 515, 1027]> x_23_has_output_shape_cast_fp16 = conv_transpose(bias = instruments_1_up6_0_bias_to_fp16, dilations = x_23_dilations_0, groups = x_23_groups_0, output_shape = x_23_has_output_shape_output_shape_0, pad = x_23_pad_0, pad_type = x_23_pad_type_0, strides = x_23_strides_0, weight = instruments_1_up6_0_weight_to_fp16, x = input_171_cast_fp16)[name = tensor<string, []>("x_23_has_output_shape_cast_fp16")];
            tensor<int32, [4]> var_557_begin_0 = const()[name = tensor<string, []>("op_557_begin_0"), val = tensor<int32, [4]>([0, 0, 1, 0])];
            tensor<int32, [4]> var_557_end_0 = const()[name = tensor<string, []>("op_557_end_0"), val = tensor<int32, [4]>([1, 1, 513, 1027])];
            tensor<bool, [4]> var_557_end_mask_0 = const()[name = tensor<string, []>("op_557_end_mask_0"), val = tensor<bool, [4]>([true, true, false, true])];
            tensor<fp16, [1, 1, 512, 1027]> var_557_cast_fp16 = slice_by_index(begin = var_557_begin_0, end = var_557_end_0, end_mask = var_557_end_mask_0, x = x_23_has_output_shape_cast_fp16)[name = tensor<string, []>("op_557_cast_fp16")];
            tensor<int32, [4]> input_173_begin_0 = const()[name = tensor<string, []>("input_173_begin_0"), val = tensor<int32, [4]>([0, 0, 0, 1])];
            tensor<int32, [4]> input_173_end_0 = const()[name = tensor<string, []>("input_173_end_0"), val = tensor<int32, [4]>([1, 1, 512, 1025])];
            tensor<bool, [4]> input_173_end_mask_0 = const()[name = tensor<string, []>("input_173_end_mask_0"), val = tensor<bool, [4]>([true, true, true, false])];
            tensor<fp16, [1, 1, 512, 1024]> input_173_cast_fp16 = slice_by_index(begin = input_173_begin_0, end = input_173_end_0, end_mask = input_173_end_mask_0, x = var_557_cast_fp16)[name = tensor<string, []>("input_173_cast_fp16")];
            tensor<fp16, [1, 1, 512, 1024]> input_175_cast_fp16 = elu(alpha = var_317_to_fp16, x = input_173_cast_fp16)[name = tensor<string, []>("input_175_cast_fp16")];
            tensor<fp16, [1]> instruments_1_up6_3_running_mean_to_fp16 = const()[name = tensor<string, []>("instruments_1_up6_3_running_mean_to_fp16"), val = tensor<fp16, [1]>([0x0p+0])];
            tensor<fp16, [1]> instruments_1_up6_3_running_var_to_fp16 = const()[name = tensor<string, []>("instruments_1_up6_3_running_var_to_fp16"), val = tensor<fp16, [1]>([0x1p+0])];
            tensor<fp16, [1]> instruments_1_up6_3_weight_to_fp16 = const()[name = tensor<string, []>("instruments_1_up6_3_weight_to_fp16"), val = tensor<fp16, [1]>([0x1.364p-5])];
            tensor<fp16, [1]> instruments_1_up6_3_bias_to_fp16 = const()[name = tensor<string, []>("instruments_1_up6_3_bias_to_fp16"), val = tensor<fp16, [1]>([-0x1.3c8p+0])];
            tensor<fp16, [1, 1, 512, 1024]> input_177_cast_fp16 = batch_norm(beta = instruments_1_up6_3_bias_to_fp16, epsilon = var_315_to_fp16, gamma = instruments_1_up6_3_weight_to_fp16, mean = instruments_1_up6_3_running_mean_to_fp16, variance = instruments_1_up6_3_running_var_to_fp16, x = input_175_cast_fp16)[name = tensor<string, []>("input_177_cast_fp16")];
            tensor<string, []> u7_5_pad_type_0 = const()[name = tensor<string, []>("u7_5_pad_type_0"), val = tensor<string, []>("custom")];
            tensor<int32, [4]> u7_5_pad_0 = const()[name = tensor<string, []>("u7_5_pad_0"), val = tensor<int32, [4]>([3, 3, 3, 3])];
            tensor<int32, [2]> u7_5_dilations_0 = const()[name = tensor<string, []>("u7_5_dilations_0"), val = tensor<int32, [2]>([2, 2])];
            tensor<int32, [2]> u7_5_strides_0 = const()[name = tensor<string, []>("u7_5_strides_0"), val = tensor<int32, [2]>([1, 1])];
            tensor<int32, []> u7_5_groups_0 = const()[name = tensor<string, []>("u7_5_groups_0"), val = tensor<int32, []>(1)];
            tensor<fp16, [2, 1, 4, 4]> instruments_1_up7_0_weight_to_fp16 = const()[name = tensor<string, []>("instruments_1_up7_0_weight_to_fp16"), val = tensor<fp16, [2, 1, 4, 4]>(BLOBFILE(path = tensor<string, []>("@model_path/weights/weight.bin"), offset = tensor<uint64, []>(39302208)))];
            tensor<fp16, [2]> instruments_1_up7_0_bias_to_fp16 = const()[name = tensor<string, []>("instruments_1_up7_0_bias_to_fp16"), val = tensor<fp16, [2]>([0x1.ffp-8, 0x1.8e4p-6])];
            tensor<fp16, [1, 2, 512, 1024]> u7_5_cast_fp16 = conv(bias = instruments_1_up7_0_bias_to_fp16, dilations = u7_5_dilations_0, groups = u7_5_groups_0, pad = u7_5_pad_0, pad_type = u7_5_pad_type_0, strides = u7_5_strides_0, weight = instruments_1_up7_0_weight_to_fp16, x = input_177_cast_fp16)[name = tensor<string, []>("u7_5_cast_fp16")];
            tensor<fp16, [1, 2, 512, 1024]> u7_7_cast_fp16 = sigmoid(x = u7_5_cast_fp16)[name = tensor<string, []>("u7_7_cast_fp16")];
            tensor<fp16, [1, 2, 512, 1024]> var_574_cast_fp16 = mul(x = u7_7_cast_fp16, y = input_1_cast_fp16)[name = tensor<string, []>("op_574_cast_fp16")];
            tensor<int32, []> var_585 = const()[name = tensor<string, []>("op_585"), val = tensor<int32, []>(1)];
            tensor<string, []> input_181_pad_type_0 = const()[name = tensor<string, []>("input_181_pad_type_0"), val = tensor<string, []>("valid")];
            tensor<int32, [2]> input_181_strides_0 = const()[name = tensor<string, []>("input_181_strides_0"), val = tensor<int32, [2]>([2, 2])];
            tensor<int32, [4]> input_181_pad_0 = const()[name = tensor<string, []>("input_181_pad_0"), val = tensor<int32, [4]>([0, 0, 0, 0])];
            tensor<int32, [2]> input_181_dilations_0 = const()[name = tensor<string, []>("input_181_dilations_0"), val = tensor<int32, [2]>([1, 1])];
            tensor<int32, []> input_181_groups_0 = const()[name = tensor<string, []>("input_181_groups_0"), val = tensor<int32, []>(1)];
            tensor<fp16, [16, 2, 5, 5]> instruments_2_down1_conv_1_weight_to_fp16 = const()[name = tensor<string, []>("instruments_2_down1_conv_1_weight_to_fp16"), val = tensor<fp16, [16, 2, 5, 5]>(BLOBFILE(path = tensor<string, []>("@model_path/weights/weight.bin"), offset = tensor<uint64, []>(39302336)))];
            tensor<fp16, [16]> instruments_2_down1_conv_1_bias_to_fp16 = const()[name = tensor<string, []>("instruments_2_down1_conv_1_bias_to_fp16"), val = tensor<fp16, [16]>(BLOBFILE(path = tensor<string, []>("@model_path/weights/weight.bin"), offset = tensor<uint64, []>(39304000)))];
            tensor<fp16, [1, 16, 256, 512]> input_181_cast_fp16 = conv(bias = instruments_2_down1_conv_1_bias_to_fp16, dilations = input_181_dilations_0, groups = input_181_groups_0, pad = input_181_pad_0, pad_type = input_181_pad_type_0, strides = input_181_strides_0, weight = instruments_2_down1_conv_1_weight_to_fp16, x = input_3_cast_fp16)[name = tensor<string, []>("input_181_cast_fp16")];
            tensor<fp16, [16]> instruments_2_down1_act_0_running_mean_to_fp16 = const()[name = tensor<string, []>("instruments_2_down1_act_0_running_mean_to_fp16"), val = tensor<fp16, [16]>(BLOBFILE(path = tensor<string, []>("@model_path/weights/weight.bin"), offset = tensor<uint64, []>(39304128)))];
            tensor<fp16, [16]> instruments_2_down1_act_0_running_var_to_fp16 = const()[name = tensor<string, []>("instruments_2_down1_act_0_running_var_to_fp16"), val = tensor<fp16, [16]>(BLOBFILE(path = tensor<string, []>("@model_path/weights/weight.bin"), offset = tensor<uint64, []>(39304256)))];
            tensor<fp16, [16]> instruments_2_down1_act_0_weight_to_fp16 = const()[name = tensor<string, []>("instruments_2_down1_act_0_weight_to_fp16"), val = tensor<fp16, [16]>(BLOBFILE(path = tensor<string, []>("@model_path/weights/weight.bin"), offset = tensor<uint64, []>(39304384)))];
            tensor<fp16, [16]> instruments_2_down1_act_0_bias_to_fp16 = const()[name = tensor<string, []>("instruments_2_down1_act_0_bias_to_fp16"), val = tensor<fp16, [16]>(BLOBFILE(path = tensor<string, []>("@model_path/weights/weight.bin"), offset = tensor<uint64, []>(39304512)))];
            tensor<fp16, []> var_579_to_fp16 = const()[name = tensor<string, []>("op_579_to_fp16"), val = tensor<fp16, []>(0x1.064p-10)];
            tensor<fp16, [1, 16, 256, 512]> input_183_cast_fp16 = batch_norm(beta = instruments_2_down1_act_0_bias_to_fp16, epsilon = var_579_to_fp16, gamma = instruments_2_down1_act_0_weight_to_fp16, mean = instruments_2_down1_act_0_running_mean_to_fp16, variance = instruments_2_down1_act_0_running_var_to_fp16, x = input_181_cast_fp16)[name = tensor<string, []>("input_183_cast_fp16")];
            tensor<fp16, []> var_581_to_fp16 = const()[name = tensor<string, []>("op_581_to_fp16"), val = tensor<fp16, []>(0x1p+0)];
            tensor<fp16, [1, 16, 256, 512]> input_185_cast_fp16 = elu(alpha = var_581_to_fp16, x = input_183_cast_fp16)[name = tensor<string, []>("input_185_cast_fp16")];
            tensor<int32, [8]> input_187_pad_0 = const()[name = tensor<string, []>("input_187_pad_0"), val = tensor<int32, [8]>([0, 0, 0, 0, 1, 2, 1, 2])];
            tensor<string, []> input_187_mode_0 = const()[name = tensor<string, []>("input_187_mode_0"), val = tensor<string, []>("constant")];
            tensor<fp16, []> const_18_to_fp16 = const()[name = tensor<string, []>("const_18_to_fp16"), val = tensor<fp16, []>(0x0p+0)];
            tensor<fp16, [1, 16, 259, 515]> input_187_cast_fp16 = pad(constant_val = const_18_to_fp16, mode = input_187_mode_0, pad = input_187_pad_0, x = input_185_cast_fp16)[name = tensor<string, []>("input_187_cast_fp16")];
            tensor<string, []> input_189_pad_type_0 = const()[name = tensor<string, []>("input_189_pad_type_0"), val = tensor<string, []>("valid")];
            tensor<int32, [2]> input_189_strides_0 = const()[name = tensor<string, []>("input_189_strides_0"), val = tensor<int32, [2]>([2, 2])];
            tensor<int32, [4]> input_189_pad_0 = const()[name = tensor<string, []>("input_189_pad_0"), val = tensor<int32, [4]>([0, 0, 0, 0])];
            tensor<int32, [2]> input_189_dilations_0 = const()[name = tensor<string, []>("input_189_dilations_0"), val = tensor<int32, [2]>([1, 1])];
            tensor<int32, []> input_189_groups_0 = const()[name = tensor<string, []>("input_189_groups_0"), val = tensor<int32, []>(1)];
            tensor<fp16, [32, 16, 5, 5]> instruments_2_down2_conv_1_weight_to_fp16 = const()[name = tensor<string, []>("instruments_2_down2_conv_1_weight_to_fp16"), val = tensor<fp16, [32, 16, 5, 5]>(BLOBFILE(path = tensor<string, []>("@model_path/weights/weight.bin"), offset = tensor<uint64, []>(39304640)))];
            tensor<fp16, [32]> instruments_2_down2_conv_1_bias_to_fp16 = const()[name = tensor<string, []>("instruments_2_down2_conv_1_bias_to_fp16"), val = tensor<fp16, [32]>(BLOBFILE(path = tensor<string, []>("@model_path/weights/weight.bin"), offset = tensor<uint64, []>(39330304)))];
            tensor<fp16, [1, 32, 128, 256]> input_189_cast_fp16 = conv(bias = instruments_2_down2_conv_1_bias_to_fp16, dilations = input_189_dilations_0, groups = input_189_groups_0, pad = input_189_pad_0, pad_type = input_189_pad_type_0, strides = input_189_strides_0, weight = instruments_2_down2_conv_1_weight_to_fp16, x = input_187_cast_fp16)[name = tensor<string, []>("input_189_cast_fp16")];
            tensor<fp16, [32]> instruments_2_down2_act_0_running_mean_to_fp16 = const()[name = tensor<string, []>("instruments_2_down2_act_0_running_mean_to_fp16"), val = tensor<fp16, [32]>(BLOBFILE(path = tensor<string, []>("@model_path/weights/weight.bin"), offset = tensor<uint64, []>(39330432)))];
            tensor<fp16, [32]> instruments_2_down2_act_0_running_var_to_fp16 = const()[name = tensor<string, []>("instruments_2_down2_act_0_running_var_to_fp16"), val = tensor<fp16, [32]>(BLOBFILE(path = tensor<string, []>("@model_path/weights/weight.bin"), offset = tensor<uint64, []>(39330560)))];
            tensor<fp16, [32]> instruments_2_down2_act_0_weight_to_fp16 = const()[name = tensor<string, []>("instruments_2_down2_act_0_weight_to_fp16"), val = tensor<fp16, [32]>(BLOBFILE(path = tensor<string, []>("@model_path/weights/weight.bin"), offset = tensor<uint64, []>(39330688)))];
            tensor<fp16, [32]> instruments_2_down2_act_0_bias_to_fp16 = const()[name = tensor<string, []>("instruments_2_down2_act_0_bias_to_fp16"), val = tensor<fp16, [32]>(BLOBFILE(path = tensor<string, []>("@model_path/weights/weight.bin"), offset = tensor<uint64, []>(39330816)))];
            tensor<fp16, [1, 32, 128, 256]> input_191_cast_fp16 = batch_norm(beta = instruments_2_down2_act_0_bias_to_fp16, epsilon = var_579_to_fp16, gamma = instruments_2_down2_act_0_weight_to_fp16, mean = instruments_2_down2_act_0_running_mean_to_fp16, variance = instruments_2_down2_act_0_running_var_to_fp16, x = input_189_cast_fp16)[name = tensor<string, []>("input_191_cast_fp16")];
            tensor<fp16, [1, 32, 128, 256]> input_193_cast_fp16 = elu(alpha = var_581_to_fp16, x = input_191_cast_fp16)[name = tensor<string, []>("input_193_cast_fp16")];
            tensor<int32, [8]> input_195_pad_0 = const()[name = tensor<string, []>("input_195_pad_0"), val = tensor<int32, [8]>([0, 0, 0, 0, 1, 2, 1, 2])];
            tensor<string, []> input_195_mode_0 = const()[name = tensor<string, []>("input_195_mode_0"), val = tensor<string, []>("constant")];
            tensor<fp16, []> const_19_to_fp16 = const()[name = tensor<string, []>("const_19_to_fp16"), val = tensor<fp16, []>(0x0p+0)];
            tensor<fp16, [1, 32, 131, 259]> input_195_cast_fp16 = pad(constant_val = const_19_to_fp16, mode = input_195_mode_0, pad = input_195_pad_0, x = input_193_cast_fp16)[name = tensor<string, []>("input_195_cast_fp16")];
            tensor<string, []> input_197_pad_type_0 = const()[name = tensor<string, []>("input_197_pad_type_0"), val = tensor<string, []>("valid")];
            tensor<int32, [2]> input_197_strides_0 = const()[name = tensor<string, []>("input_197_strides_0"), val = tensor<int32, [2]>([2, 2])];
            tensor<int32, [4]> input_197_pad_0 = const()[name = tensor<string, []>("input_197_pad_0"), val = tensor<int32, [4]>([0, 0, 0, 0])];
            tensor<int32, [2]> input_197_dilations_0 = const()[name = tensor<string, []>("input_197_dilations_0"), val = tensor<int32, [2]>([1, 1])];
            tensor<int32, []> input_197_groups_0 = const()[name = tensor<string, []>("input_197_groups_0"), val = tensor<int32, []>(1)];
            tensor<fp16, [64, 32, 5, 5]> instruments_2_down3_conv_1_weight_to_fp16 = const()[name = tensor<string, []>("instruments_2_down3_conv_1_weight_to_fp16"), val = tensor<fp16, [64, 32, 5, 5]>(BLOBFILE(path = tensor<string, []>("@model_path/weights/weight.bin"), offset = tensor<uint64, []>(39330944)))];
            tensor<fp16, [64]> instruments_2_down3_conv_1_bias_to_fp16 = const()[name = tensor<string, []>("instruments_2_down3_conv_1_bias_to_fp16"), val = tensor<fp16, [64]>(BLOBFILE(path = tensor<string, []>("@model_path/weights/weight.bin"), offset = tensor<uint64, []>(39433408)))];
            tensor<fp16, [1, 64, 64, 128]> input_197_cast_fp16 = conv(bias = instruments_2_down3_conv_1_bias_to_fp16, dilations = input_197_dilations_0, groups = input_197_groups_0, pad = input_197_pad_0, pad_type = input_197_pad_type_0, strides = input_197_strides_0, weight = instruments_2_down3_conv_1_weight_to_fp16, x = input_195_cast_fp16)[name = tensor<string, []>("input_197_cast_fp16")];
            tensor<fp16, [64]> instruments_2_down3_act_0_running_mean_to_fp16 = const()[name = tensor<string, []>("instruments_2_down3_act_0_running_mean_to_fp16"), val = tensor<fp16, [64]>(BLOBFILE(path = tensor<string, []>("@model_path/weights/weight.bin"), offset = tensor<uint64, []>(39433600)))];
            tensor<fp16, [64]> instruments_2_down3_act_0_running_var_to_fp16 = const()[name = tensor<string, []>("instruments_2_down3_act_0_running_var_to_fp16"), val = tensor<fp16, [64]>(BLOBFILE(path = tensor<string, []>("@model_path/weights/weight.bin"), offset = tensor<uint64, []>(39433792)))];
            tensor<fp16, [64]> instruments_2_down3_act_0_weight_to_fp16 = const()[name = tensor<string, []>("instruments_2_down3_act_0_weight_to_fp16"), val = tensor<fp16, [64]>(BLOBFILE(path = tensor<string, []>("@model_path/weights/weight.bin"), offset = tensor<uint64, []>(39433984)))];
            tensor<fp16, [64]> instruments_2_down3_act_0_bias_to_fp16 = const()[name = tensor<string, []>("instruments_2_down3_act_0_bias_to_fp16"), val = tensor<fp16, [64]>(BLOBFILE(path = tensor<string, []>("@model_path/weights/weight.bin"), offset = tensor<uint64, []>(39434176)))];
            tensor<fp16, [1, 64, 64, 128]> input_199_cast_fp16 = batch_norm(beta = instruments_2_down3_act_0_bias_to_fp16, epsilon = var_579_to_fp16, gamma = instruments_2_down3_act_0_weight_to_fp16, mean = instruments_2_down3_act_0_running_mean_to_fp16, variance = instruments_2_down3_act_0_running_var_to_fp16, x = input_197_cast_fp16)[name = tensor<string, []>("input_199_cast_fp16")];
            tensor<fp16, [1, 64, 64, 128]> input_201_cast_fp16 = elu(alpha = var_581_to_fp16, x = input_199_cast_fp16)[name = tensor<string, []>("input_201_cast_fp16")];
            tensor<int32, [8]> input_203_pad_0 = const()[name = tensor<string, []>("input_203_pad_0"), val = tensor<int32, [8]>([0, 0, 0, 0, 1, 2, 1, 2])];
            tensor<string, []> input_203_mode_0 = const()[name = tensor<string, []>("input_203_mode_0"), val = tensor<string, []>("constant")];
            tensor<fp16, []> const_20_to_fp16 = const()[name = tensor<string, []>("const_20_to_fp16"), val = tensor<fp16, []>(0x0p+0)];
            tensor<fp16, [1, 64, 67, 131]> input_203_cast_fp16 = pad(constant_val = const_20_to_fp16, mode = input_203_mode_0, pad = input_203_pad_0, x = input_201_cast_fp16)[name = tensor<string, []>("input_203_cast_fp16")];
            tensor<string, []> input_205_pad_type_0 = const()[name = tensor<string, []>("input_205_pad_type_0"), val = tensor<string, []>("valid")];
            tensor<int32, [2]> input_205_strides_0 = const()[name = tensor<string, []>("input_205_strides_0"), val = tensor<int32, [2]>([2, 2])];
            tensor<int32, [4]> input_205_pad_0 = const()[name = tensor<string, []>("input_205_pad_0"), val = tensor<int32, [4]>([0, 0, 0, 0])];
            tensor<int32, [2]> input_205_dilations_0 = const()[name = tensor<string, []>("input_205_dilations_0"), val = tensor<int32, [2]>([1, 1])];
            tensor<int32, []> input_205_groups_0 = const()[name = tensor<string, []>("input_205_groups_0"), val = tensor<int32, []>(1)];
            tensor<fp16, [128, 64, 5, 5]> instruments_2_down4_conv_1_weight_to_fp16 = const()[name = tensor<string, []>("instruments_2_down4_conv_1_weight_to_fp16"), val = tensor<fp16, [128, 64, 5, 5]>(BLOBFILE(path = tensor<string, []>("@model_path/weights/weight.bin"), offset = tensor<uint64, []>(39434368)))];
            tensor<fp16, [128]> instruments_2_down4_conv_1_bias_to_fp16 = const()[name = tensor<string, []>("instruments_2_down4_conv_1_bias_to_fp16"), val = tensor<fp16, [128]>(BLOBFILE(path = tensor<string, []>("@model_path/weights/weight.bin"), offset = tensor<uint64, []>(39844032)))];
            tensor<fp16, [1, 128, 32, 64]> input_205_cast_fp16 = conv(bias = instruments_2_down4_conv_1_bias_to_fp16, dilations = input_205_dilations_0, groups = input_205_groups_0, pad = input_205_pad_0, pad_type = input_205_pad_type_0, strides = input_205_strides_0, weight = instruments_2_down4_conv_1_weight_to_fp16, x = input_203_cast_fp16)[name = tensor<string, []>("input_205_cast_fp16")];
            tensor<fp16, [128]> instruments_2_down4_act_0_weight_to_fp16 = const()[name = tensor<string, []>("instruments_2_down4_act_0_weight_to_fp16"), val = tensor<fp16, [128]>(BLOBFILE(path = tensor<string, []>("@model_path/weights/weight.bin"), offset = tensor<uint64, []>(39844352)))];
            tensor<fp16, [128]> instruments_2_down4_act_0_bias_to_fp16 = const()[name = tensor<string, []>("instruments_2_down4_act_0_bias_to_fp16"), val = tensor<fp16, [128]>(BLOBFILE(path = tensor<string, []>("@model_path/weights/weight.bin"), offset = tensor<uint64, []>(39844672)))];
            tensor<fp16, [1, 128, 32, 64]> input_207_cast_fp16 = batch_norm(beta = instruments_2_down4_act_0_bias_to_fp16, epsilon = var_579_to_fp16, gamma = instruments_2_down4_act_0_weight_to_fp16, mean = instruments_0_down4_act_0_running_mean_to_fp16, variance = instruments_0_down4_act_0_running_var_to_fp16, x = input_205_cast_fp16)[name = tensor<string, []>("input_207_cast_fp16")];
            tensor<fp16, [1, 128, 32, 64]> input_209_cast_fp16 = elu(alpha = var_581_to_fp16, x = input_207_cast_fp16)[name = tensor<string, []>("input_209_cast_fp16")];
            tensor<int32, [8]> input_211_pad_0 = const()[name = tensor<string, []>("input_211_pad_0"), val = tensor<int32, [8]>([0, 0, 0, 0, 1, 2, 1, 2])];
            tensor<string, []> input_211_mode_0 = const()[name = tensor<string, []>("input_211_mode_0"), val = tensor<string, []>("constant")];
            tensor<fp16, []> const_21_to_fp16 = const()[name = tensor<string, []>("const_21_to_fp16"), val = tensor<fp16, []>(0x0p+0)];
            tensor<fp16, [1, 128, 35, 67]> input_211_cast_fp16 = pad(constant_val = const_21_to_fp16, mode = input_211_mode_0, pad = input_211_pad_0, x = input_209_cast_fp16)[name = tensor<string, []>("input_211_cast_fp16")];
            tensor<string, []> input_213_pad_type_0 = const()[name = tensor<string, []>("input_213_pad_type_0"), val = tensor<string, []>("valid")];
            tensor<int32, [2]> input_213_strides_0 = const()[name = tensor<string, []>("input_213_strides_0"), val = tensor<int32, [2]>([2, 2])];
            tensor<int32, [4]> input_213_pad_0 = const()[name = tensor<string, []>("input_213_pad_0"), val = tensor<int32, [4]>([0, 0, 0, 0])];
            tensor<int32, [2]> input_213_dilations_0 = const()[name = tensor<string, []>("input_213_dilations_0"), val = tensor<int32, [2]>([1, 1])];
            tensor<int32, []> input_213_groups_0 = const()[name = tensor<string, []>("input_213_groups_0"), val = tensor<int32, []>(1)];
            tensor<fp16, [256, 128, 5, 5]> instruments_2_down5_conv_1_weight_to_fp16 = const()[name = tensor<string, []>("instruments_2_down5_conv_1_weight_to_fp16"), val = tensor<fp16, [256, 128, 5, 5]>(BLOBFILE(path = tensor<string, []>("@model_path/weights/weight.bin"), offset = tensor<uint64, []>(39844992)))];
            tensor<fp16, [256]> instruments_2_down5_conv_1_bias_to_fp16 = const()[name = tensor<string, []>("instruments_2_down5_conv_1_bias_to_fp16"), val = tensor<fp16, [256]>(BLOBFILE(path = tensor<string, []>("@model_path/weights/weight.bin"), offset = tensor<uint64, []>(41483456)))];
            tensor<fp16, [1, 256, 16, 32]> input_213_cast_fp16 = conv(bias = instruments_2_down5_conv_1_bias_to_fp16, dilations = input_213_dilations_0, groups = input_213_groups_0, pad = input_213_pad_0, pad_type = input_213_pad_type_0, strides = input_213_strides_0, weight = instruments_2_down5_conv_1_weight_to_fp16, x = input_211_cast_fp16)[name = tensor<string, []>("input_213_cast_fp16")];
            tensor<fp16, [256]> instruments_2_down5_act_0_weight_to_fp16 = const()[name = tensor<string, []>("instruments_2_down5_act_0_weight_to_fp16"), val = tensor<fp16, [256]>(BLOBFILE(path = tensor<string, []>("@model_path/weights/weight.bin"), offset = tensor<uint64, []>(41484032)))];
            tensor<fp16, [256]> instruments_2_down5_act_0_bias_to_fp16 = const()[name = tensor<string, []>("instruments_2_down5_act_0_bias_to_fp16"), val = tensor<fp16, [256]>(BLOBFILE(path = tensor<string, []>("@model_path/weights/weight.bin"), offset = tensor<uint64, []>(41484608)))];
            tensor<fp16, [1, 256, 16, 32]> input_215_cast_fp16 = batch_norm(beta = instruments_2_down5_act_0_bias_to_fp16, epsilon = var_579_to_fp16, gamma = instruments_2_down5_act_0_weight_to_fp16, mean = instruments_0_down5_act_0_running_mean_to_fp16, variance = instruments_0_down5_act_0_running_var_to_fp16, x = input_213_cast_fp16)[name = tensor<string, []>("input_215_cast_fp16")];
            tensor<fp16, [1, 256, 16, 32]> input_217_cast_fp16 = elu(alpha = var_581_to_fp16, x = input_215_cast_fp16)[name = tensor<string, []>("input_217_cast_fp16")];
            tensor<int32, [8]> input_219_pad_0 = const()[name = tensor<string, []>("input_219_pad_0"), val = tensor<int32, [8]>([0, 0, 0, 0, 1, 2, 1, 2])];
            tensor<string, []> input_219_mode_0 = const()[name = tensor<string, []>("input_219_mode_0"), val = tensor<string, []>("constant")];
            tensor<fp16, []> const_22_to_fp16 = const()[name = tensor<string, []>("const_22_to_fp16"), val = tensor<fp16, []>(0x0p+0)];
            tensor<fp16, [1, 256, 19, 35]> input_219_cast_fp16 = pad(constant_val = const_22_to_fp16, mode = input_219_mode_0, pad = input_219_pad_0, x = input_217_cast_fp16)[name = tensor<string, []>("input_219_cast_fp16")];
            tensor<string, []> input_221_pad_type_0 = const()[name = tensor<string, []>("input_221_pad_type_0"), val = tensor<string, []>("valid")];
            tensor<int32, [2]> input_221_strides_0 = const()[name = tensor<string, []>("input_221_strides_0"), val = tensor<int32, [2]>([2, 2])];
            tensor<int32, [4]> input_221_pad_0 = const()[name = tensor<string, []>("input_221_pad_0"), val = tensor<int32, [4]>([0, 0, 0, 0])];
            tensor<int32, [2]> input_221_dilations_0 = const()[name = tensor<string, []>("input_221_dilations_0"), val = tensor<int32, [2]>([1, 1])];
            tensor<int32, []> input_221_groups_0 = const()[name = tensor<string, []>("input_221_groups_0"), val = tensor<int32, []>(1)];
            tensor<fp16, [512, 256, 5, 5]> instruments_2_down6_conv_1_weight_to_fp16 = const()[name = tensor<string, []>("instruments_2_down6_conv_1_weight_to_fp16"), val = tensor<fp16, [512, 256, 5, 5]>(BLOBFILE(path = tensor<string, []>("@model_path/weights/weight.bin"), offset = tensor<uint64, []>(41485184)))];
            tensor<fp16, [512]> instruments_2_down6_conv_1_bias_to_fp16 = const()[name = tensor<string, []>("instruments_2_down6_conv_1_bias_to_fp16"), val = tensor<fp16, [512]>(BLOBFILE(path = tensor<string, []>("@model_path/weights/weight.bin"), offset = tensor<uint64, []>(48038848)))];
            tensor<fp16, [1, 512, 8, 16]> input_221_cast_fp16 = conv(bias = instruments_2_down6_conv_1_bias_to_fp16, dilations = input_221_dilations_0, groups = input_221_groups_0, pad = input_221_pad_0, pad_type = input_221_pad_type_0, strides = input_221_strides_0, weight = instruments_2_down6_conv_1_weight_to_fp16, x = input_219_cast_fp16)[name = tensor<string, []>("input_221_cast_fp16")];
            tensor<string, []> x_25_pad_type_0 = const()[name = tensor<string, []>("x_25_pad_type_0"), val = tensor<string, []>("valid")];
            tensor<int32, [2]> x_25_strides_0 = const()[name = tensor<string, []>("x_25_strides_0"), val = tensor<int32, [2]>([2, 2])];
            tensor<int32, [4]> x_25_pad_0 = const()[name = tensor<string, []>("x_25_pad_0"), val = tensor<int32, [4]>([0, 0, 0, 0])];
            tensor<int32, [2]> x_25_dilations_0 = const()[name = tensor<string, []>("x_25_dilations_0"), val = tensor<int32, [2]>([1, 1])];
            tensor<int32, []> x_25_groups_0 = const()[name = tensor<string, []>("x_25_groups_0"), val = tensor<int32, []>(1)];
            tensor<int32, [4]> x_25_has_output_shape_output_shape_0 = const()[name = tensor<string, []>("x_25_has_output_shape_output_shape_0"), val = tensor<int32, [4]>([1, 256, 19, 35])];
            tensor<fp16, [512, 256, 5, 5]> instruments_2_up1_0_weight_to_fp16 = const()[name = tensor<string, []>("instruments_2_up1_0_weight_to_fp16"), val = tensor<fp16, [512, 256, 5, 5]>(BLOBFILE(path = tensor<string, []>("@model_path/weights/weight.bin"), offset = tensor<uint64, []>(48039936)))];
            tensor<fp16, [256]> instruments_2_up1_0_bias_to_fp16 = const()[name = tensor<string, []>("instruments_2_up1_0_bias_to_fp16"), val = tensor<fp16, [256]>(BLOBFILE(path = tensor<string, []>("@model_path/weights/weight.bin"), offset = tensor<uint64, []>(54593600)))];
            tensor<fp16, [1, 256, 19, 35]> x_25_has_output_shape_cast_fp16 = conv_transpose(bias = instruments_2_up1_0_bias_to_fp16, dilations = x_25_dilations_0, groups = x_25_groups_0, output_shape = x_25_has_output_shape_output_shape_0, pad = x_25_pad_0, pad_type = x_25_pad_type_0, strides = x_25_strides_0, weight = instruments_2_up1_0_weight_to_fp16, x = input_221_cast_fp16)[name = tensor<string, []>("x_25_has_output_shape_cast_fp16")];
            tensor<int32, [4]> var_713_begin_0 = const()[name = tensor<string, []>("op_713_begin_0"), val = tensor<int32, [4]>([0, 0, 1, 0])];
            tensor<int32, [4]> var_713_end_0 = const()[name = tensor<string, []>("op_713_end_0"), val = tensor<int32, [4]>([1, 256, 17, 35])];
            tensor<bool, [4]> var_713_end_mask_0 = const()[name = tensor<string, []>("op_713_end_mask_0"), val = tensor<bool, [4]>([true, true, false, true])];
            tensor<fp16, [1, 256, 16, 35]> var_713_cast_fp16 = slice_by_index(begin = var_713_begin_0, end = var_713_end_0, end_mask = var_713_end_mask_0, x = x_25_has_output_shape_cast_fp16)[name = tensor<string, []>("op_713_cast_fp16")];
            tensor<int32, [4]> input_225_begin_0 = const()[name = tensor<string, []>("input_225_begin_0"), val = tensor<int32, [4]>([0, 0, 0, 1])];
            tensor<int32, [4]> input_225_end_0 = const()[name = tensor<string, []>("input_225_end_0"), val = tensor<int32, [4]>([1, 256, 16, 33])];
            tensor<bool, [4]> input_225_end_mask_0 = const()[name = tensor<string, []>("input_225_end_mask_0"), val = tensor<bool, [4]>([true, true, true, false])];
            tensor<fp16, [1, 256, 16, 32]> input_225_cast_fp16 = slice_by_index(begin = input_225_begin_0, end = input_225_end_0, end_mask = input_225_end_mask_0, x = var_713_cast_fp16)[name = tensor<string, []>("input_225_cast_fp16")];
            tensor<fp16, [1, 256, 16, 32]> input_227_cast_fp16 = elu(alpha = var_581_to_fp16, x = input_225_cast_fp16)[name = tensor<string, []>("input_227_cast_fp16")];
            tensor<fp16, [256]> instruments_2_up1_3_weight_to_fp16 = const()[name = tensor<string, []>("instruments_2_up1_3_weight_to_fp16"), val = tensor<fp16, [256]>(BLOBFILE(path = tensor<string, []>("@model_path/weights/weight.bin"), offset = tensor<uint64, []>(54594176)))];
            tensor<fp16, [256]> instruments_2_up1_3_bias_to_fp16 = const()[name = tensor<string, []>("instruments_2_up1_3_bias_to_fp16"), val = tensor<fp16, [256]>(BLOBFILE(path = tensor<string, []>("@model_path/weights/weight.bin"), offset = tensor<uint64, []>(54594752)))];
            tensor<fp16, [1, 256, 16, 32]> input_229_cast_fp16 = batch_norm(beta = instruments_2_up1_3_bias_to_fp16, epsilon = var_579_to_fp16, gamma = instruments_2_up1_3_weight_to_fp16, mean = instruments_0_down5_act_0_running_mean_to_fp16, variance = instruments_0_down5_act_0_running_var_to_fp16, x = input_227_cast_fp16)[name = tensor<string, []>("input_229_cast_fp16")];
            tensor<bool, []> input_231_interleave_0 = const()[name = tensor<string, []>("input_231_interleave_0"), val = tensor<bool, []>(false)];
            tensor<fp16, [1, 512, 16, 32]> input_231_cast_fp16 = concat(axis = var_585, interleave = input_231_interleave_0, values = (input_213_cast_fp16, input_229_cast_fp16))[name = tensor<string, []>("input_231_cast_fp16")];
            tensor<string, []> x_27_pad_type_0 = const()[name = tensor<string, []>("x_27_pad_type_0"), val = tensor<string, []>("valid")];
            tensor<int32, [2]> x_27_strides_0 = const()[name = tensor<string, []>("x_27_strides_0"), val = tensor<int32, [2]>([2, 2])];
            tensor<int32, [4]> x_27_pad_0 = const()[name = tensor<string, []>("x_27_pad_0"), val = tensor<int32, [4]>([0, 0, 0, 0])];
            tensor<int32, [2]> x_27_dilations_0 = const()[name = tensor<string, []>("x_27_dilations_0"), val = tensor<int32, [2]>([1, 1])];
            tensor<int32, []> x_27_groups_0 = const()[name = tensor<string, []>("x_27_groups_0"), val = tensor<int32, []>(1)];
            tensor<int32, [4]> x_27_has_output_shape_output_shape_0 = const()[name = tensor<string, []>("x_27_has_output_shape_output_shape_0"), val = tensor<int32, [4]>([1, 128, 35, 67])];
            tensor<fp16, [512, 128, 5, 5]> instruments_2_up2_0_weight_to_fp16 = const()[name = tensor<string, []>("instruments_2_up2_0_weight_to_fp16"), val = tensor<fp16, [512, 128, 5, 5]>(BLOBFILE(path = tensor<string, []>("@model_path/weights/weight.bin"), offset = tensor<uint64, []>(54595328)))];
            tensor<fp16, [128]> instruments_2_up2_0_bias_to_fp16 = const()[name = tensor<string, []>("instruments_2_up2_0_bias_to_fp16"), val = tensor<fp16, [128]>(BLOBFILE(path = tensor<string, []>("@model_path/weights/weight.bin"), offset = tensor<uint64, []>(57872192)))];
            tensor<fp16, [1, 128, 35, 67]> x_27_has_output_shape_cast_fp16 = conv_transpose(bias = instruments_2_up2_0_bias_to_fp16, dilations = x_27_dilations_0, groups = x_27_groups_0, output_shape = x_27_has_output_shape_output_shape_0, pad = x_27_pad_0, pad_type = x_27_pad_type_0, strides = x_27_strides_0, weight = instruments_2_up2_0_weight_to_fp16, x = input_231_cast_fp16)[name = tensor<string, []>("x_27_has_output_shape_cast_fp16")];
            tensor<int32, [4]> var_735_begin_0 = const()[name = tensor<string, []>("op_735_begin_0"), val = tensor<int32, [4]>([0, 0, 1, 0])];
            tensor<int32, [4]> var_735_end_0 = const()[name = tensor<string, []>("op_735_end_0"), val = tensor<int32, [4]>([1, 128, 33, 67])];
            tensor<bool, [4]> var_735_end_mask_0 = const()[name = tensor<string, []>("op_735_end_mask_0"), val = tensor<bool, [4]>([true, true, false, true])];
            tensor<fp16, [1, 128, 32, 67]> var_735_cast_fp16 = slice_by_index(begin = var_735_begin_0, end = var_735_end_0, end_mask = var_735_end_mask_0, x = x_27_has_output_shape_cast_fp16)[name = tensor<string, []>("op_735_cast_fp16")];
            tensor<int32, [4]> input_233_begin_0 = const()[name = tensor<string, []>("input_233_begin_0"), val = tensor<int32, [4]>([0, 0, 0, 1])];
            tensor<int32, [4]> input_233_end_0 = const()[name = tensor<string, []>("input_233_end_0"), val = tensor<int32, [4]>([1, 128, 32, 65])];
            tensor<bool, [4]> input_233_end_mask_0 = const()[name = tensor<string, []>("input_233_end_mask_0"), val = tensor<bool, [4]>([true, true, true, false])];
            tensor<fp16, [1, 128, 32, 64]> input_233_cast_fp16 = slice_by_index(begin = input_233_begin_0, end = input_233_end_0, end_mask = input_233_end_mask_0, x = var_735_cast_fp16)[name = tensor<string, []>("input_233_cast_fp16")];
            tensor<fp16, [1, 128, 32, 64]> input_235_cast_fp16 = elu(alpha = var_581_to_fp16, x = input_233_cast_fp16)[name = tensor<string, []>("input_235_cast_fp16")];
            tensor<fp16, [128]> instruments_2_up2_3_weight_to_fp16 = const()[name = tensor<string, []>("instruments_2_up2_3_weight_to_fp16"), val = tensor<fp16, [128]>(BLOBFILE(path = tensor<string, []>("@model_path/weights/weight.bin"), offset = tensor<uint64, []>(57872512)))];
            tensor<fp16, [128]> instruments_2_up2_3_bias_to_fp16 = const()[name = tensor<string, []>("instruments_2_up2_3_bias_to_fp16"), val = tensor<fp16, [128]>(BLOBFILE(path = tensor<string, []>("@model_path/weights/weight.bin"), offset = tensor<uint64, []>(57872832)))];
            tensor<fp16, [1, 128, 32, 64]> input_237_cast_fp16 = batch_norm(beta = instruments_2_up2_3_bias_to_fp16, epsilon = var_579_to_fp16, gamma = instruments_2_up2_3_weight_to_fp16, mean = instruments_0_down4_act_0_running_mean_to_fp16, variance = instruments_0_down4_act_0_running_var_to_fp16, x = input_235_cast_fp16)[name = tensor<string, []>("input_237_cast_fp16")];
            tensor<bool, []> input_239_interleave_0 = const()[name = tensor<string, []>("input_239_interleave_0"), val = tensor<bool, []>(false)];
            tensor<fp16, [1, 256, 32, 64]> input_239_cast_fp16 = concat(axis = var_585, interleave = input_239_interleave_0, values = (input_205_cast_fp16, input_237_cast_fp16))[name = tensor<string, []>("input_239_cast_fp16")];
            tensor<string, []> x_29_pad_type_0 = const()[name = tensor<string, []>("x_29_pad_type_0"), val = tensor<string, []>("valid")];
            tensor<int32, [2]> x_29_strides_0 = const()[name = tensor<string, []>("x_29_strides_0"), val = tensor<int32, [2]>([2, 2])];
            tensor<int32, [4]> x_29_pad_0 = const()[name = tensor<string, []>("x_29_pad_0"), val = tensor<int32, [4]>([0, 0, 0, 0])];
            tensor<int32, [2]> x_29_dilations_0 = const()[name = tensor<string, []>("x_29_dilations_0"), val = tensor<int32, [2]>([1, 1])];
            tensor<int32, []> x_29_groups_0 = const()[name = tensor<string, []>("x_29_groups_0"), val = tensor<int32, []>(1)];
            tensor<int32, [4]> x_29_has_output_shape_output_shape_0 = const()[name = tensor<string, []>("x_29_has_output_shape_output_shape_0"), val = tensor<int32, [4]>([1, 64, 67, 131])];
            tensor<fp16, [256, 64, 5, 5]> instruments_2_up3_0_weight_to_fp16 = const()[name = tensor<string, []>("instruments_2_up3_0_weight_to_fp16"), val = tensor<fp16, [256, 64, 5, 5]>(BLOBFILE(path = tensor<string, []>("@model_path/weights/weight.bin"), offset = tensor<uint64, []>(57873152)))];
            tensor<fp16, [64]> instruments_2_up3_0_bias_to_fp16 = const()[name = tensor<string, []>("instruments_2_up3_0_bias_to_fp16"), val = tensor<fp16, [64]>(BLOBFILE(path = tensor<string, []>("@model_path/weights/weight.bin"), offset = tensor<uint64, []>(58692416)))];
            tensor<fp16, [1, 64, 67, 131]> x_29_has_output_shape_cast_fp16 = conv_transpose(bias = instruments_2_up3_0_bias_to_fp16, dilations = x_29_dilations_0, groups = x_29_groups_0, output_shape = x_29_has_output_shape_output_shape_0, pad = x_29_pad_0, pad_type = x_29_pad_type_0, strides = x_29_strides_0, weight = instruments_2_up3_0_weight_to_fp16, x = input_239_cast_fp16)[name = tensor<string, []>("x_29_has_output_shape_cast_fp16")];
            tensor<int32, [4]> var_757_begin_0 = const()[name = tensor<string, []>("op_757_begin_0"), val = tensor<int32, [4]>([0, 0, 1, 0])];
            tensor<int32, [4]> var_757_end_0 = const()[name = tensor<string, []>("op_757_end_0"), val = tensor<int32, [4]>([1, 64, 65, 131])];
            tensor<bool, [4]> var_757_end_mask_0 = const()[name = tensor<string, []>("op_757_end_mask_0"), val = tensor<bool, [4]>([true, true, false, true])];
            tensor<fp16, [1, 64, 64, 131]> var_757_cast_fp16 = slice_by_index(begin = var_757_begin_0, end = var_757_end_0, end_mask = var_757_end_mask_0, x = x_29_has_output_shape_cast_fp16)[name = tensor<string, []>("op_757_cast_fp16")];
            tensor<int32, [4]> input_241_begin_0 = const()[name = tensor<string, []>("input_241_begin_0"), val = tensor<int32, [4]>([0, 0, 0, 1])];
            tensor<int32, [4]> input_241_end_0 = const()[name = tensor<string, []>("input_241_end_0"), val = tensor<int32, [4]>([1, 64, 64, 129])];
            tensor<bool, [4]> input_241_end_mask_0 = const()[name = tensor<string, []>("input_241_end_mask_0"), val = tensor<bool, [4]>([true, true, true, false])];
            tensor<fp16, [1, 64, 64, 128]> input_241_cast_fp16 = slice_by_index(begin = input_241_begin_0, end = input_241_end_0, end_mask = input_241_end_mask_0, x = var_757_cast_fp16)[name = tensor<string, []>("input_241_cast_fp16")];
            tensor<fp16, [1, 64, 64, 128]> input_243_cast_fp16 = elu(alpha = var_581_to_fp16, x = input_241_cast_fp16)[name = tensor<string, []>("input_243_cast_fp16")];
            tensor<fp16, [64]> instruments_2_up3_3_running_mean_to_fp16 = const()[name = tensor<string, []>("instruments_2_up3_3_running_mean_to_fp16"), val = tensor<fp16, [64]>(BLOBFILE(path = tensor<string, []>("@model_path/weights/weight.bin"), offset = tensor<uint64, []>(58692608)))];
            tensor<fp16, [64]> instruments_2_up3_3_running_var_to_fp16 = const()[name = tensor<string, []>("instruments_2_up3_3_running_var_to_fp16"), val = tensor<fp16, [64]>(BLOBFILE(path = tensor<string, []>("@model_path/weights/weight.bin"), offset = tensor<uint64, []>(58692800)))];
            tensor<fp16, [64]> instruments_2_up3_3_weight_to_fp16 = const()[name = tensor<string, []>("instruments_2_up3_3_weight_to_fp16"), val = tensor<fp16, [64]>(BLOBFILE(path = tensor<string, []>("@model_path/weights/weight.bin"), offset = tensor<uint64, []>(58692992)))];
            tensor<fp16, [64]> instruments_2_up3_3_bias_to_fp16 = const()[name = tensor<string, []>("instruments_2_up3_3_bias_to_fp16"), val = tensor<fp16, [64]>(BLOBFILE(path = tensor<string, []>("@model_path/weights/weight.bin"), offset = tensor<uint64, []>(58693184)))];
            tensor<fp16, [1, 64, 64, 128]> input_245_cast_fp16 = batch_norm(beta = instruments_2_up3_3_bias_to_fp16, epsilon = var_579_to_fp16, gamma = instruments_2_up3_3_weight_to_fp16, mean = instruments_2_up3_3_running_mean_to_fp16, variance = instruments_2_up3_3_running_var_to_fp16, x = input_243_cast_fp16)[name = tensor<string, []>("input_245_cast_fp16")];
            tensor<bool, []> input_247_interleave_0 = const()[name = tensor<string, []>("input_247_interleave_0"), val = tensor<bool, []>(false)];
            tensor<fp16, [1, 128, 64, 128]> input_247_cast_fp16 = concat(axis = var_585, interleave = input_247_interleave_0, values = (input_197_cast_fp16, input_245_cast_fp16))[name = tensor<string, []>("input_247_cast_fp16")];
            tensor<string, []> x_31_pad_type_0 = const()[name = tensor<string, []>("x_31_pad_type_0"), val = tensor<string, []>("valid")];
            tensor<int32, [2]> x_31_strides_0 = const()[name = tensor<string, []>("x_31_strides_0"), val = tensor<int32, [2]>([2, 2])];
            tensor<int32, [4]> x_31_pad_0 = const()[name = tensor<string, []>("x_31_pad_0"), val = tensor<int32, [4]>([0, 0, 0, 0])];
            tensor<int32, [2]> x_31_dilations_0 = const()[name = tensor<string, []>("x_31_dilations_0"), val = tensor<int32, [2]>([1, 1])];
            tensor<int32, []> x_31_groups_0 = const()[name = tensor<string, []>("x_31_groups_0"), val = tensor<int32, []>(1)];
            tensor<int32, [4]> x_31_has_output_shape_output_shape_0 = const()[name = tensor<string, []>("x_31_has_output_shape_output_shape_0"), val = tensor<int32, [4]>([1, 32, 131, 259])];
            tensor<fp16, [128, 32, 5, 5]> instruments_2_up4_0_weight_to_fp16 = const()[name = tensor<string, []>("instruments_2_up4_0_weight_to_fp16"), val = tensor<fp16, [128, 32, 5, 5]>(BLOBFILE(path = tensor<string, []>("@model_path/weights/weight.bin"), offset = tensor<uint64, []>(58693376)))];
            tensor<fp16, [32]> instruments_2_up4_0_bias_to_fp16 = const()[name = tensor<string, []>("instruments_2_up4_0_bias_to_fp16"), val = tensor<fp16, [32]>(BLOBFILE(path = tensor<string, []>("@model_path/weights/weight.bin"), offset = tensor<uint64, []>(58898240)))];
            tensor<fp16, [1, 32, 131, 259]> x_31_has_output_shape_cast_fp16 = conv_transpose(bias = instruments_2_up4_0_bias_to_fp16, dilations = x_31_dilations_0, groups = x_31_groups_0, output_shape = x_31_has_output_shape_output_shape_0, pad = x_31_pad_0, pad_type = x_31_pad_type_0, strides = x_31_strides_0, weight = instruments_2_up4_0_weight_to_fp16, x = input_247_cast_fp16)[name = tensor<string, []>("x_31_has_output_shape_cast_fp16")];
            tensor<int32, [4]> var_779_begin_0 = const()[name = tensor<string, []>("op_779_begin_0"), val = tensor<int32, [4]>([0, 0, 1, 0])];
            tensor<int32, [4]> var_779_end_0 = const()[name = tensor<string, []>("op_779_end_0"), val = tensor<int32, [4]>([1, 32, 129, 259])];
            tensor<bool, [4]> var_779_end_mask_0 = const()[name = tensor<string, []>("op_779_end_mask_0"), val = tensor<bool, [4]>([true, true, false, true])];
            tensor<fp16, [1, 32, 128, 259]> var_779_cast_fp16 = slice_by_index(begin = var_779_begin_0, end = var_779_end_0, end_mask = var_779_end_mask_0, x = x_31_has_output_shape_cast_fp16)[name = tensor<string, []>("op_779_cast_fp16")];
            tensor<int32, [4]> input_249_begin_0 = const()[name = tensor<string, []>("input_249_begin_0"), val = tensor<int32, [4]>([0, 0, 0, 1])];
            tensor<int32, [4]> input_249_end_0 = const()[name = tensor<string, []>("input_249_end_0"), val = tensor<int32, [4]>([1, 32, 128, 257])];
            tensor<bool, [4]> input_249_end_mask_0 = const()[name = tensor<string, []>("input_249_end_mask_0"), val = tensor<bool, [4]>([true, true, true, false])];
            tensor<fp16, [1, 32, 128, 256]> input_249_cast_fp16 = slice_by_index(begin = input_249_begin_0, end = input_249_end_0, end_mask = input_249_end_mask_0, x = var_779_cast_fp16)[name = tensor<string, []>("input_249_cast_fp16")];
…
            tensor<int32, [2]> input_301_dilations_0 = const()[name = tensor<string, []>("input_301_dilations_0"), val = tensor<int32, [2]>([1, 1])];
            tensor<int32, []> input_301_groups_0 = const()[name = tensor<string, []>("input_301_groups_0"), val = tensor<int32, []>(1)];
            tensor<fp16, [256, 128, 5, 5]> instruments_3_down5_conv_1_weight_to_fp16 = const()[name = tensor<string, []>("instruments_3_down5_conv_1_weight_to_fp16"), val = tensor<fp16, [256, 128, 5, 5]>(BLOBFILE(path = tensor<string, []>("@model_path/weights/weight.bin"), offset = tensor<uint64, []>(59495232)))];
            tensor<fp16, [256]> instruments_3_down5_conv_1_bias_to_fp16 = const()[name = tensor<string, []>("instruments_3_down5_conv_1_bias_to_fp16"), val = tensor<fp16, [256]>(BLOBFILE(path = tensor<string, []>("@model_path/weights/weight.bin"), offset = tensor<uint64, []>(61133696)))];
            tensor<fp16, [1, 256, 16, 32]> input_301_cast_fp16 = conv(bias = instruments_3_down5_conv_1_bias_to_fp16, dilations = input_301_dilations_0, groups = input_301_groups_0, pad = input_301_pad_0, pad_type = input_301_pad_type_0, strides = input_301_strides_0, weight = instruments_3_down5_conv_1_weight_to_fp16, x = input_299_cast_fp16)[name = tensor<string, []>("input_301_cast_fp16")];
            tensor<fp16, [256]> instruments_3_down5_act_0_weight_to_fp16 = const()[name = tensor<string, []>("instruments_3_down5_act_0_weight_to_fp16"), val = tensor<fp16, [256]>(BLOBFILE(path = tensor<string, []>("@model_path/weights/weight.bin"), offset = tensor<uint64, []>(61134272)))];
            tensor<fp16, [256]> instruments_3_down5_act_0_bias_to_fp16 = const()[name = tensor<string, []>("instruments_3_down5_act_0_bias_to_fp16"), val = tensor<fp16, [256]>(BLOBFILE(path = tensor<string, []>("@model_path/weights/weight.bin"), offset = tensor<uint64, []>(61134848)))];
            tensor<fp16, [1, 256, 16, 32]> input_303_cast_fp16 = batch_norm(beta = instruments_3_down5_act_0_bias_to_fp16, epsilon = var_843_to_fp16, gamma = instruments_3_down5_act_0_weight_to_fp16, mean = instruments_0_down5_act_0_running_mean_to_fp16, variance = instruments_0_down5_act_0_running_var_to_fp16, x = input_301_cast_fp16)[name = tensor<string, []>("input_303_cast_fp16")];
            tensor<fp16, [1, 256, 16, 32]> input_305_cast_fp16 = elu(alpha = var_845_to_fp16, x = input_303_cast_fp16)[name = tensor<string, []>("input_305_cast_fp16")];
            tensor<int32, [8]> input_307_pad_0 = const()[name = tensor<string, []>("input_307_pad_0"), val = tensor<int32, [8]>([0, 0, 0, 0, 1, 2, 1, 2])];
            tensor<string, []> input_307_mode_0 = const()[name = tensor<string, []>("input_307_mode_0"), val = tensor<string, []>("constant")];
            tensor<fp16, []> const_28_to_fp16 = const()[name = tensor<string, []>("const_28_to_fp16"), val = tensor<fp16, []>(0x0p+0)];
            tensor<fp16, [1, 256, 19, 35]> input_307_cast_fp16 = pad(constant_val = const_28_to_fp16, mode = input_307_mode_0, pad = input_307_pad_0, x = input_305_cast_fp16)[name = tensor<string, []>("input_307_cast_fp16")];
            tensor<string, []> input_309_pad_type_0 = const()[name = tensor<string, []>("input_309_pad_type_0"), val = tensor<string, []>("valid")];
            tensor<int32, [2]> input_309_strides_0 = const()[name = tensor<string, []>("input_309_strides_0"), val = tensor<int32, [2]>([2, 2])];
            tensor<int32, [4]> input_309_pad_0 = const()[name = tensor<string, []>("input_309_pad_0"), val = tensor<int32, [4]>([0, 0, 0, 0])];
            tensor<int32, [2]> input_309_dilations_0 = const()[name = tensor<string, []>("input_309_dilations_0"), val = tensor<int32, [2]>([1, 1])];
            tensor<int32, []> input_309_groups_0 = const()[name = tensor<string, []>("input_309_groups_0"), val = tensor<int32, []>(1)];
            tensor<fp16, [512, 256, 5, 5]> instruments_3_down6_conv_1_weight_to_fp16 = const()[name = tensor<string, []>("instruments_3_down6_conv_1_weight_to_fp16"), val = tensor<fp16, [512, 256, 5, 5]>(BLOBFILE(path = tensor<string, []>("@model_path/weights/weight.bin"), offset = tensor<uint64, []>(61135424)))];
            tensor<fp16, [512]> instruments_3_down6_conv_1_bias_to_fp16 = const()[name = tensor<string, []>("instruments_3_down6_conv_1_bias_to_fp16"), val = tensor<fp16, [512]>(BLOBFILE(path = tensor<string, []>("@model_path/weights/weight.bin"), offset = tensor<uint64, []>(67689088)))];
            tensor<fp16, [1, 512, 8, 16]> input_309_cast_fp16 = conv(bias = instruments_3_down6_conv_1_bias_to_fp16, dilations = input_309_dilations_0, groups = input_309_groups_0, pad = input_309_pad_0, pad_type = input_309_pad_type_0, strides = input_309_strides_0, weight = instruments_3_down6_conv_1_weight_to_fp16, x = input_307_cast_fp16)[name = tensor<string, []>("input_309_cast_fp16")];
            tensor<string, []> x_37_pad_type_0 = const()[name = tensor<string, []>("x_37_pad_type_0"), val = tensor<string, []>("valid")];
            tensor<int32, [2]> x_37_strides_0 = const()[name = tensor<string, []>("x_37_strides_0"), val = tensor<int32, [2]>([2, 2])];
            tensor<int32, [4]> x_37_pad_0 = const()[name = tensor<string, []>("x_37_pad_0"), val = tensor<int32, [4]>([0, 0, 0, 0])];
            tensor<int32, [2]> x_37_dilations_0 = const()[name = tensor<string, []>("x_37_dilations_0"), val = tensor<int32, [2]>([1, 1])];
            tensor<int32, []> x_37_groups_0 = const()[name = tensor<string, []>("x_37_groups_0"), val = tensor<int32, []>(1)];
            tensor<int32, [4]> x_37_has_output_shape_output_shape_0 = const()[name = tensor<string, []>("x_37_has_output_shape_output_shape_0"), val = tensor<int32, [4]>([1, 256, 19, 35])];
            tensor<fp16, [512, 256, 5, 5]> instruments_3_up1_0_weight_to_fp16 = const()[name = tensor<string, []>("instruments_3_up1_0_weight_to_fp16"), val = tensor<fp16, [512, 256, 5, 5]>(BLOBFILE(path = tensor<string, []>("@model_path/weights/weight.bin"), offset = tensor<uint64, []>(67690176)))];
            tensor<fp16, [256]> instruments_3_up1_0_bias_to_fp16 = const()[name = tensor<string, []>("instruments_3_up1_0_bias_to_fp16"), val = tensor<fp16, [256]>(BLOBFILE(path = tensor<string, []>("@model_path/weights/weight.bin"), offset = tensor<uint64, []>(74243840)))];
            tensor<fp16, [1, 256, 19, 35]> x_37_has_output_shape_cast_fp16 = conv_transpose(bias = instruments_3_up1_0_bias_to_fp16, dilations = x_37_dilations_0, groups = x_37_groups_0, output_shape = x_37_has_output_shape_output_shape_0, pad = x_37_pad_0, pad_type = x_37_pad_type_0, strides = x_37_strides_0, weight = instruments_3_up1_0_weight_to_fp16, x = input_309_cast_fp16)[name = tensor<string, []>("x_37_has_output_shape_cast_fp16")];
            tensor<int32, [4]> var_977_begin_0 = const()[name = tensor<string, []>("op_977_begin_0"), val = tensor<int32, [4]>([0, 0, 1, 0])];
            tensor<int32, [4]> var_977_end_0 = const()[name = tensor<string, []>("op_977_end_0"), val = tensor<int32, [4]>([1, 256, 17, 35])];
            tensor<bool, [4]> var_977_end_mask_0 = const()[name = tensor<string, []>("op_977_end_mask_0"), val = tensor<bool, [4]>([true, true, false, true])];
            tensor<fp16, [1, 256, 16, 35]> var_977_cast_fp16 = slice_by_index(begin = var_977_begin_0, end = var_977_end_0, end_mask = var_977_end_mask_0, x = x_37_has_output_shape_cast_fp16)[name = tensor<string, []>("op_977_cast_fp16")];
            tensor<int32, [4]> input_313_begin_0 = const()[name = tensor<string, []>("input_313_begin_0"), val = tensor<int32, [4]>([0, 0, 0, 1])];
            tensor<int32, [4]> input_313_end_0 = const()[name = tensor<string, []>("input_313_end_0"), val = tensor<int32, [4]>([1, 256, 16, 33])];
            tensor<bool, [4]> input_313_end_mask_0 = const()[name = tensor<string, []>("input_313_end_mask_0"), val = tensor<bool, [4]>([true, true, true, false])];
            tensor<fp16, [1, 256, 16, 32]> input_313_cast_fp16 = slice_by_index(begin = input_313_begin_0, end = input_313_end_0, end_mask = input_313_end_mask_0, x = var_977_cast_fp16)[name = tensor<string, []>("input_313_cast_fp16")];
            tensor<fp16, [1, 256, 16, 32]> input_315_cast_fp16 = elu(alpha = var_845_to_fp16, x = input_313_cast_fp16)[name = tensor<string, []>("input_315_cast_fp16")];
            tensor<fp16, [256]> instruments_3_up1_3_weight_to_fp16 = const()[name = tensor<string, []>("instruments_3_up1_3_weight_to_fp16"), val = tensor<fp16, [256]>(BLOBFILE(path = tensor<string, []>("@model_path/weights/weight.bin"), offset = tensor<uint64, []>(74244416)))];
            tensor<fp16, [256]> instruments_3_up1_3_bias_to_fp16 = const()[name = tensor<string, []>("instruments_3_up1_3_bias_to_fp16"), val = tensor<fp16, [256]>(BLOBFILE(path = tensor<string, []>("@model_path/weights/weight.bin"), offset = tensor<uint64, []>(74244992)))];
            tensor<fp16, [1, 256, 16, 32]> input_317_cast_fp16 = batch_norm(beta = instruments_3_up1_3_bias_to_fp16, epsilon = var_843_to_fp16, gamma = instruments_3_up1_3_weight_to_fp16, mean = instruments_0_down5_act_0_running_mean_to_fp16, variance = instruments_0_down5_act_0_running_var_to_fp16, x = input_315_cast_fp16)[name = tensor<string, []>("input_317_cast_fp16")];
            tensor<bool, []> input_319_interleave_0 = const()[name = tensor<string, []>("input_319_interleave_0"), val = tensor<bool, []>(false)];
            tensor<fp16, [1, 512, 16, 32]> input_319_cast_fp16 = concat(axis = var_849, interleave = input_319_interleave_0, values = (input_301_cast_fp16, input_317_cast_fp16))[name = tensor<string, []>("input_319_cast_fp16")];
            tensor<string, []> x_39_pad_type_0 = const()[name = tensor<string, []>("x_39_pad_type_0"), val = tensor<string, []>("valid")];
            tensor<int32, [2]> x_39_strides_0 = const()[name = tensor<string, []>("x_39_strides_0"), val = tensor<int32, [2]>([2, 2])];
            tensor<int32, [4]> x_39_pad_0 = const()[name = tensor<string, []>("x_39_pad_0"), val = tensor<int32, [4]>([0, 0, 0, 0])];
            tensor<int32, [2]> x_39_dilations_0 = const()[name = tensor<string, []>("x_39_dilations_0"), val = tensor<int32, [2]>([1, 1])];
            tensor<int32, []> x_39_groups_0 = const()[name = tensor<string, []>("x_39_groups_0"), val = tensor<int32, []>(1)];
            tensor<int32, [4]> x_39_has_output_shape_output_shape_0 = const()[name = tensor<string, []>("x_39_has_output_shape_output_shape_0"), val = tensor<int32, [4]>([1, 128, 35, 67])];
            tensor<fp16, [512, 128, 5, 5]> instruments_3_up2_0_weight_to_fp16 = const()[name = tensor<string, []>("instruments_3_up2_0_weight_to_fp16"), val = tensor<fp16, [512, 128, 5, 5]>(BLOBFILE(path = tensor<string, []>("@model_path/weights/weight.bin"), offset = tensor<uint64, []>(74245568)))];
            tensor<fp16, [128]> instruments_3_up2_0_bias_to_fp16 = const()[name = tensor<string, []>("instruments_3_up2_0_bias_to_fp16"), val = tensor<fp16, [128]>(BLOBFILE(path = tensor<string, []>("@model_path/weights/weight.bin"), offset = tensor<uint64, []>(77522432)))];
            tensor<fp16, [1, 128, 35, 67]> x_39_has_output_shape_cast_fp16 = conv_transpose(bias = instruments_3_up2_0_bias_to_fp16, dilations = x_39_dilations_0, groups = x_39_groups_0, output_shape = x_39_has_output_shape_output_shape_0, pad = x_39_pad_0, pad_type = x_39_pad_type_0, strides = x_39_strides_0, weight = instruments_3_up2_0_weight_to_fp16, x = input_319_cast_fp16)[name = tensor<string, []>("x_39_has_output_shape_cast_fp16")];
            tensor<int32, [4]> var_999_begin_0 = const()[name = tensor<string, []>("op_999_begin_0"), val = tensor<int32, [4]>([0, 0, 1, 0])];
            tensor<int32, [4]> var_999_end_0 = const()[name = tensor<string, []>("op_999_end_0"), val = tensor<int32, [4]>([1, 128, 33, 67])];
            tensor<bool, [4]> var_999_end_mask_0 = const()[name = tensor<string, []>("op_999_end_mask_0"), val = tensor<bool, [4]>([true, true, false, true])];
            tensor<fp16, [1, 128, 32, 67]> var_999_cast_fp16 = slice_by_index(begin = var_999_begin_0, end = var_999_end_0, end_mask = var_999_end_mask_0, x = x_39_has_output_shape_cast_fp16)[name = tensor<string, []>("op_999_cast_fp16")];
            tensor<int32, [4]> input_321_begin_0 = const()[name = tensor<string, []>("input_321_begin_0"), val = tensor<int32, [4]>([0, 0, 0, 1])];
            tensor<int32, [4]> input_321_end_0 = const()[name = tensor<string, []>("input_321_end_0"), val = tensor<int32, [4]>([1, 128, 32, 65])];
            tensor<bool, [4]> input_321_end_mask_0 = const()[name = tensor<string, []>("input_321_end_mask_0"), val = tensor<bool, [4]>([true, true, true, false])];
            tensor<fp16, [1, 128, 32, 64]> input_321_cast_fp16 = slice_by_index(begin = input_321_begin_0, end = input_321_end_0, end_mask = input_321_end_mask_0, x = var_999_cast_fp16)[name = tensor<string, []>("input_321_cast_fp16")];
            tensor<fp16, [1, 128, 32, 64]> input_323_cast_fp16 = elu(alpha = var_845_to_fp16, x = input_321_cast_fp16)[name = tensor<string, []>("input_323_cast_fp16")];
            tensor<fp16, [128]> instruments_3_up2_3_weight_to_fp16 = const()[name = tensor<string, []>("instruments_3_up2_3_weight_to_fp16"), val = tensor<fp16, [128]>(BLOBFILE(path = tensor<string, []>("@model_path/weights/weight.bin"), offset = tensor<uint64, []>(77522752)))];
            tensor<fp16, [128]> instruments_3_up2_3_bias_to_fp16 = const()[name = tensor<string, []>("instruments_3_up2_3_bias_to_fp16"), val = tensor<fp16, [128]>(BLOBFILE(path = tensor<string, []>("@model_path/weights/weight.bin"), offset = tensor<uint64, []>(77523072)))];
            tensor<fp16, [1, 128, 32, 64]> input_325_cast_fp16 = batch_norm(beta = instruments_3_up2_3_bias_to_fp16, epsilon = var_843_to_fp16, gamma = instruments_3_up2_3_weight_to_fp16, mean = instruments_0_down4_act_0_running_mean_to_fp16, variance = instruments_0_down4_act_0_running_var_to_fp16, x = input_323_cast_fp16)[name = tensor<string, []>("input_325_cast_fp16")];
            tensor<bool, []> input_327_interleave_0 = const()[name = tensor<string, []>("input_327_interleave_0"), val = tensor<bool, []>(false)];
            tensor<fp16, [1, 256, 32, 64]> input_327_cast_fp16 = concat(axis = var_849, interleave = input_327_interleave_0, values = (input_293_cast_fp16, input_325_cast_fp16))[name = tensor<string, []>("input_327_cast_fp16")];
            tensor<string, []> x_41_pad_type_0 = const()[name = tensor<string, []>("x_41_pad_type_0"), val = tensor<string, []>("valid")];
            tensor<int32, [2]> x_41_strides_0 = const()[name = tensor<string, []>("x_41_strides_0"), val = tensor<int32, [2]>([2, 2])];
            tensor<int32, [4]> x_41_pad_0 = const()[name = tensor<string, []>("x_41_pad_0"), val = tensor<int32, [4]>([0, 0, 0, 0])];
            tensor<int32, [2]> x_41_dilations_0 = const()[name = tensor<string, []>("x_41_dilations_0"), val = tensor<int32, [2]>([1, 1])];
            tensor<int32, []> x_41_groups_0 = const()[name = tensor<string, []>("x_41_groups_0"), val = tensor<int32, []>(1)];
            tensor<int32, [4]> x_41_has_output_shape_output_shape_0 = const()[name = tensor<string, []>("x_41_has_output_shape_output_shape_0"), val = tensor<int32, [4]>([1, 64, 67, 131])];
            tensor<fp16, [256, 64, 5, 5]> instruments_3_up3_0_weight_to_fp16 = const()[name = tensor<string, []>("instruments_3_up3_0_weight_to_fp16"), val = tensor<fp16, [256, 64, 5, 5]>(BLOBFILE(path = tensor<string, []>("@model_path/weights/weight.bin"), offset = tensor<uint64, []>(77523392)))];
            tensor<fp16, [64]> instruments_3_up3_0_bias_to_fp16 = const()[name = tensor<string, []>("instruments_3_up3_0_bias_to_fp16"), val = tensor<fp16, [64]>(BLOBFILE(path = tensor<string, []>("@model_path/weights/weight.bin"), offset = tensor<uint64, []>(78342656)))];
            tensor<fp16, [1, 64, 67, 131]> x_41_has_output_shape_cast_fp16 = conv_transpose(bias = instruments_3_up3_0_bias_to_fp16, dilations = x_41_dilations_0, groups = x_41_groups_0, output_shape = x_41_has_output_shape_output_shape_0, pad = x_41_pad_0, pad_type = x_41_pad_type_0, strides = x_41_strides_0, weight = instruments_3_up3_0_weight_to_fp16, x = input_327_cast_fp16)[name = tensor<string, []>("x_41_has_output_shape_cast_fp16")];
            tensor<int32, [4]> var_1021_begin_0 = const()[name = tensor<string, []>("op_1021_begin_0"), val = tensor<int32, [4]>([0, 0, 1, 0])];
            tensor<int32, [4]> var_1021_end_0 = const()[name = tensor<string, []>("op_1021_end_0"), val = tensor<int32, [4]>([1, 64, 65, 131])];
            tensor<bool, [4]> var_1021_end_mask_0 = const()[name = tensor<string, []>("op_1021_end_mask_0"), val = tensor<bool, [4]>([true, true, false, true])];
            tensor<fp16, [1, 64, 64, 131]> var_1021_cast_fp16 = slice_by_index(begin = var_1021_begin_0, end = var_1021_end_0, end_mask = var_1021_end_mask_0, x = x_41_has_output_shape_cast_fp16)[name = tensor<string, []>("op_1021_cast_fp16")];
            tensor<int32, [4]> input_329_begin_0 = const()[name = tensor<string, []>("input_329_begin_0"), val = tensor<int32, [4]>([0, 0, 0, 1])];
            tensor<int32, [4]> input_329_end_0 = const()[name = tensor<string, []>("input_329_end_0"), val = tensor<int32, [4]>([1, 64, 64, 129])];
            tensor<bool, [4]> input_329_end_mask_0 = const()[name = tensor<string, []>("input_329_end_mask_0"), val = tensor<bool, [4]>([true, true, true, false])];
            tensor<fp16, [1, 64, 64, 128]> input_329_cast_fp16 = slice_by_index(begin = input_329_begin_0, end = input_329_end_0, end_mask = input_329_end_mask_0, x = var_1021_cast_fp16)[name = tensor<string, []>("input_329_cast_fp16")];
            tensor<fp16, [1, 64, 64, 128]> input_331_cast_fp16 = elu(alpha = var_845_to_fp16, x = input_329_cast_fp16)[name = tensor<string, []>("input_331_cast_fp16")];
            tensor<fp16, [64]> instruments_3_up3_3_running_mean_to_fp16 = const()[name = tensor<string, []>("instruments_3_up3_3_running_mean_to_fp16"), val = tensor<fp16, [64]>(BLOBFILE(path = tensor<string, []>("@model_path/weights/weight.bin"), offset = tensor<uint64, []>(78342848)))];
            tensor<fp16, [64]> instruments_3_up3_3_running_var_to_fp16 = const()[name = tensor<string, []>("instruments_3_up3_3_running_var_to_fp16"), val = tensor<fp16, [64]>(BLOBFILE(path = tensor<string, []>("@model_path/weights/weight.bin"), offset = tensor<uint64, []>(78343040)))];
            tensor<fp16, [64]> instruments_3_up3_3_weight_to_fp16 = const()[name = tensor<string, []>("instruments_3_up3_3_weight_to_fp16"), val = tensor<fp16, [64]>(BLOBFILE(path = tensor<string, []>("@model_path/weights/weight.bin"), offset = tensor<uint64, []>(78343232)))];
            tensor<fp16, [64]> instruments_3_up3_3_bias_to_fp16 = const()[name = tensor<string, []>("instruments_3_up3_3_bias_to_fp16"), val = tensor<fp16, [64]>(BLOBFILE(path = tensor<string, []>("@model_path/weights/weight.bin"), offset = tensor<uint64, []>(78343424)))];
            tensor<fp16, [1, 64, 64, 128]> input_333_cast_fp16 = batch_norm(beta = instruments_3_up3_3_bias_to_fp16, epsilon = var_843_to_fp16, gamma = instruments_3_up3_3_weight_to_fp16, mean = instruments_3_up3_3_running_mean_to_fp16, variance = instruments_3_up3_3_running_var_to_fp16, x = input_331_cast_fp16)[name = tensor<string, []>("input_333_cast_fp16")];
            tensor<bool, []> input_335_interleave_0 = const()[name = tensor<string, []>("input_335_interleave_0"), val = tensor<bool, []>(false)];
            tensor<fp16, [1, 128, 64, 128]> input_335_cast_fp16 = concat(axis = var_849, interleave = input_335_interleave_0, values = (input_285_cast_fp16, input_333_cast_fp16))[name = tensor<string, []>("input_335_cast_fp16")];
            tensor<string, []> x_43_pad_type_0 = const()[name = tensor<string, []>("x_43_pad_type_0"), val = tensor<string, []>("valid")];
            tensor<int32, [2]> x_43_strides_0 = const()[name = tensor<string, []>("x_43_strides_0"), val = tensor<int32, [2]>([2, 2])];
            tensor<int32, [4]> x_43_pad_0 = const()[name = tensor<string, []>("x_43_pad_0"), val = tensor<int32, [4]>([0, 0, 0, 0])];
            tensor<int32, [2]> x_43_dilations_0 = const()[name = tensor<string, []>("x_43_dilations_0"), val = tensor<int32, [2]>([1, 1])];
            tensor<int32, []> x_43_groups_0 = const()[name = tensor<string, []>("x_43_groups_0"), val = tensor<int32, []>(1)];
            tensor<int32, [4]> x_43_has_output_shape_output_shape_0 = const()[name = tensor<string, []>("x_43_has_output_shape_output_shape_0"), val = tensor<int32, [4]>([1, 32, 131, 259])];
            tensor<fp16, [128, 32, 5, 5]> instruments_3_up4_0_weight_to_fp16 = const()[name = tensor<string, []>("instruments_3_up4_0_weight_to_fp16"), val = tensor<fp16, [128, 32, 5, 5]>(BLOBFILE(path = tensor<string, []>("@model_path/weights/weight.bin"), offset = tensor<uint64, []>(78343616)))];
            tensor<fp16, [32]> instruments_3_up4_0_bias_to_fp16 = const()[name = tensor<string, []>("instruments_3_up4_0_bias_to_fp16"), val = tensor<fp16, [32]>(BLOBFILE(path = tensor<string, []>("@model_path/weights/weight.bin"), offset = tensor<uint64, []>(78548480)))];
            tensor<fp16, [1, 32, 131, 259]> x_43_has_output_shape_cast_fp16 = conv_transpose(bias = instruments_3_up4_0_bias_to_fp16, dilations = x_43_dilations_0, groups = x_43_groups_0, output_shape = x_43_has_output_shape_output_shape_0, pad = x_43_pad_0, pad_type = x_43_pad_type_0, strides = x_43_strides_0, weight = instruments_3_up4_0_weight_to_fp16, x = input_335_cast_fp16)[name = tensor<string, []>("x_43_has_output_shape_cast_fp16")];
            tensor<int32, [4]> var_1043_begin_0 = const()[name = tensor<string, []>("op_1043_begin_0"), val = tensor<int32, [4]>([0, 0, 1, 0])];
            tensor<int32, [4]> var_1043_end_0 = const()[name = tensor<string, []>("op_1043_end_0"), val = tensor<int32, [4]>([1, 32, 129, 259])];
            tensor<bool, [4]> var_1043_end_mask_0 = const()[name = tensor<string, []>("op_1043_end_mask_0"), val = tensor<bool, [4]>([true, true, false, true])];
            tensor<fp16, [1, 32, 128, 259]> var_1043_cast_fp16 = slice_by_index(begin = var_1043_begin_0, end = var_1043_end_0, end_mask = var_1043_end_mask_0, x = x_43_has_output_shape_cast_fp16)[name = tensor<string, []>("op_1043_cast_fp16")];
            tensor<int32, [4]> input_337_begin_0 = const()[name = tensor<string, []>("input_337_begin_0"), val = tensor<int32, [4]>([0, 0, 0, 1])];
            tensor<int32, [4]> input_337_end_0 = const()[name = tensor<string, []>("input_337_end_0"), val = tensor<int32, [4]>([1, 32, 128, 257])];
            tensor<bool, [4]> input_337_end_mask_0 = const()[name = tensor<string, []>("input_337_end_mask_0"), val = tensor<bool, [4]>([true, true, true, false])];
            tensor<fp16, [1, 32, 128, 256]> input_337_cast_fp16 = slice_by_index(begin = input_337_begin_0, end = input_337_end_0, end_mask = input_337_end_mask_0, x = var_1043_cast_fp16)[name = tensor<string, []>("input_337_cast_fp16")];
            tensor<fp16, [1, 32, 128, 256]> input_339_cast_fp16 = elu(alpha = var_845_to_fp16, x = input_337_cast_fp16)[name = tensor<string, []>("input_339_cast_fp16")];
            tensor<fp16, [32]> instruments_3_up4_3_running_mean_to_fp16 = const()[name = tensor<string, []>("instruments_3_up4_3_running_mean_to_fp16"), val = tensor<fp16, [32]>(BLOBFILE(path = tensor<string, []>("@model_path/weights/weight.bin"), offset = tensor<uint64, []>(78548608)))];
            tensor<fp16, [32]> instruments_3_up4_3_running_var_to_fp16 = const()[name = tensor<string, []>("instruments_3_up4_3_running_var_to_fp16"), val = tensor<fp16, [32]>(BLOBFILE(path = tensor<string, []>("@model_path/weights/weight.bin"), offset = tensor<uint64, []>(78548736)))];
            tensor<fp16, [32]> instruments_3_up4_3_weight_to_fp16 = const()[name = tensor<string, []>("instruments_3_up4_3_weight_to_fp16"), val = tensor<fp16, [32]>(BLOBFILE(path = tensor<string, []>("@model_path/weights/weight.bin"), offset = tensor<uint64, []>(78548864)))];
            tensor<fp16, [32]> instruments_3_up4_3_bias_to_fp16 = const()[name = tensor<string, []>("instruments_3_up4_3_bias_to_fp16"), val = tensor<fp16, [32]>(BLOBFILE(path = tensor<string, []>("@model_path/weights/weight.bin"), offset = tensor<uint64, []>(78548992)))];
            tensor<fp16, [1, 32, 128, 256]> u4_cast_fp16 = batch_norm(beta = instruments_3_up4_3_bias_to_fp16, epsilon = var_843_to_fp16, gamma = instruments_3_up4_3_weight_to_fp16, mean = instruments_3_up4_3_running_mean_to_fp16, variance = instruments_3_up4_3_running_var_to_fp16, x = input_339_cast_fp16)[name = tensor<string, []>("u4_cast_fp16")];
            tensor<bool, []> input_341_interleave_0 = const()[name = tensor<string, []>("input_341_interleave_0"), val = tensor<bool, []>(false)];
            tensor<fp16, [1, 64, 128, 256]> input_341_cast_fp16 = concat(axis = var_849, interleave = input_341_interleave_0, values = (input_277_cast_fp16, u4_cast_fp16))[name = tensor<string, []>("input_341_cast_fp16")];
            tensor<string, []> x_45_pad_type_0 = const()[name = tensor<string, []>("x_45_pad_type_0"), val = tensor<string, []>("valid")];
            tensor<int32, [2]> x_45_strides_0 = const()[name = tensor<string, []>("x_45_strides_0"), val = tensor<int32, [2]>([2, 2])];
            tensor<int32, [4]> x_45_pad_0 = const()[name = tensor<string, []>("x_45_pad_0"), val = tensor<int32, [4]>([0, 0, 0, 0])];
            tensor<int32, [2]> x_45_dilations_0 = const()[name = tensor<string, []>("x_45_dilations_0"), val = tensor<int32, [2]>([1, 1])];
            tensor<int32, []> x_45_groups_0 = const()[name = tensor<string, []>("x_45_groups_0"), val = tensor<int32, []>(1)];
            tensor<int32, [4]> x_45_has_output_shape_output_shape_0 = const()[name = tensor<string, []>("x_45_has_output_shape_output_shape_0"), val = tensor<int32, [4]>([1, 16, 259, 515])];
            tensor<fp16, [64, 16, 5, 5]> instruments_3_up5_0_weight_to_fp16 = const()[name = tensor<string, []>("instruments_3_up5_0_weight_to_fp16"), val = tensor<fp16, [64, 16, 5, 5]>(BLOBFILE(path = tensor<string, []>("@model_path/weights/weight.bin"), offset = tensor<uint64, []>(78549120)))];
            tensor<fp16, [16]> instruments_3_up5_0_bias_to_fp16 = const()[name = tensor<string, []>("instruments_3_up5_0_bias_to_fp16"), val = tensor<fp16, [16]>(BLOBFILE(path = tensor<string, []>("@model_path/weights/weight.bin"), offset = tensor<uint64, []>(78600384)))];
            tensor<fp16, [1, 16, 259, 515]> x_45_has_output_shape_cast_fp16 = conv_transpose(bias = instruments_3_up5_0_bias_to_fp16, dilations = x_45_dilations_0, groups = x_45_groups_0, output_shape = x_45_has_output_shape_output_shape_0, pad = x_45_pad_0, pad_type = x_45_pad_type_0, strides = x_45_strides_0, weight = instruments_3_up5_0_weight_to_fp16, x = input_341_cast_fp16)[name = tensor<string, []>("x_45_has_output_shape_cast_fp16")];
            tensor<int32, [4]> var_1064_begin_0 = const()[name = tensor<string, []>("op_1064_begin_0"), val = tensor<int32, [4]>([0, 0, 1, 0])];
            tensor<int32, [4]> var_1064_end_0 = const()[name = tensor<string, []>("op_1064_end_0"), val = tensor<int32, [4]>([1, 16, 257, 515])];
            tensor<bool, [4]> var_1064_end_mask_0 = const()[name = tensor<string, []>("op_1064_end_mask_0"), val = tensor<bool, [4]>([true, true, false, true])];
            tensor<fp16, [1, 16, 256, 515]> var_1064_cast_fp16 = slice_by_index(begin = var_1064_begin_0, end = var_1064_end_0, end_mask = var_1064_end_mask_0, x = x_45_has_output_shape_cast_fp16)[name = tensor<string, []>("op_1064_cast_fp16")];
            tensor<int32, [4]> input_343_begin_0 = const()[name = tensor<string, []>("input_343_begin_0"), val = tensor<int32, [4]>([0, 0, 0, 1])];
            tensor<int32, [4]> input_343_end_0 = const()[name = tensor<string, []>("input_343_end_0"), val = tensor<int32, [4]>([1, 16, 256, 513])];
            tensor<bool, [4]> input_343_end_mask_0 = const()[name = tensor<string, []>("input_343_end_mask_0"), val = tensor<bool, [4]>([true, true, true, false])];
            tensor<fp16, [1, 16, 256, 512]> input_343_cast_fp16 = slice_by_index(begin = input_343_begin_0, end = input_343_end_0, end_mask = input_343_end_mask_0, x = var_1064_cast_fp16)[name = tensor<string, []>("input_343_cast_fp16")];
            tensor<fp16, [1, 16, 256, 512]> input_345_cast_fp16 = elu(alpha = var_845_to_fp16, x = input_343_cast_fp16)[name = tensor<string, []>("input_345_cast_fp16")];
            tensor<fp16, [16]> instruments_3_up5_3_running_mean_to_fp16 = const()[name = tensor<string, []>("instruments_3_up5_3_running_mean_to_fp16"), val = tensor<fp16, [16]>(BLOBFILE(path = tensor<string, []>("@model_path/weights/weight.bin"), offset = tensor<uint64, []>(78600512)))];
            tensor<fp16, [16]> instruments_3_up5_3_running_var_to_fp16 = const()[name = tensor<string, []>("instruments_3_up5_3_running_var_to_fp16"), val = tensor<fp16, [16]>(BLOBFILE(path = tensor<string, []>("@model_path/weights/weight.bin"), offset = tensor<uint64, []>(78600640)))];
            tensor<fp16, [16]> instruments_3_up5_3_weight_to_fp16 = const()[name = tensor<string, []>("instruments_3_up5_3_weight_to_fp16"), val = tensor<fp16, [16]>(BLOBFILE(path = tensor<string, []>("@model_path/weights/weight.bin"), offset = tensor<uint64, []>(78600768)))];
            tensor<fp16, [16]> instruments_3_up5_3_bias_to_fp16 = const()[name = tensor<string, []>("instruments_3_up5_3_bias_to_fp16"), val = tensor<fp16, [16]>(BLOBFILE(path = tensor<string, []>("@model_path/weights/weight.bin"), offset = tensor<uint64, []>(78600896)))];
            tensor<fp16, [1, 16, 256, 512]> u5_cast_fp16 = batch_norm(beta = instruments_3_up5_3_bias_to_fp16, epsilon = var_843_to_fp16, gamma = instruments_3_up5_3_weight_to_fp16, mean = instruments_3_up5_3_running_mean_to_fp16, variance = instruments_3_up5_3_running_var_to_fp16, x = input_345_cast_fp16)[name = tensor<string, []>("u5_cast_fp16")];
            tensor<bool, []> input_347_interleave_0 = const()[name = tensor<string, []>("input_347_interleave_0"), val = tensor<bool, []>(false)];
            tensor<fp16, [1, 32, 256, 512]> input_347_cast_fp16 = concat(axis = var_849, interleave = input_347_interleave_0, values = (input_269_cast_fp16, u5_cast_fp16))[name = tensor<string, []>("input_347_cast_fp16")];
            tensor<string, []> x_pad_type_0 = const()[name = tensor<string, []>("x_pad_type_0"), val = tensor<string, []>("valid")];
            tensor<int32, [2]> x_strides_0 = const()[name = tensor<string, []>("x_strides_0"), val = tensor<int32, [2]>([2, 2])];
            tensor<int32, [4]> x_pad_0 = const()[name = tensor<string, []>("x_pad_0"), val = tensor<int32, [4]>([0, 0, 0, 0])];
            tensor<int32, [2]> x_dilations_0 = const()[name = tensor<string, []>("x_dilations_0"), val = tensor<int32, [2]>([1, 1])];
            tensor<int32, []> x_groups_0 = const()[name = tensor<string, []>("x_groups_0"), val = tensor<int32, []>(1)];
            tensor<int32, [4]> x_has_output_shape_output_shape_0 = const()[name = tensor<string, []>("x_has_output_shape_output_shape_0"), val = tensor<int32, [4]>([1, 1, 515, 1027])];
            tensor<fp16, [32, 1, 5, 5]> instruments_3_up6_0_weight_to_fp16 = const()[name = tensor<string, []>("instruments_3_up6_0_weight_to_fp16"), val = tensor<fp16, [32, 1, 5, 5]>(BLOBFILE(path = tensor<string, []>("@model_path/weights/weight.bin"), offset = tensor<uint64, []>(78601024)))];
            tensor<fp16, [1]> instruments_3_up6_0_bias_to_fp16 = const()[name = tensor<string, []>("instruments_3_up6_0_bias_to_fp16"), val = tensor<fp16, [1]>([0x1.c5cp-1])];
            tensor<fp16, [1, 1, 515, 1027]> x_has_output_shape_cast_fp16 = conv_transpose(bias = instruments_3_up6_0_bias_to_fp16, dilations = x_dilations_0, groups = x_groups_0, output_shape = x_has_output_shape_output_shape_0, pad = x_pad_0, pad_type = x_pad_type_0, strides = x_strides_0, weight = instruments_3_up6_0_weight_to_fp16, x = input_347_cast_fp16)[name = tensor<string, []>("x_has_output_shape_cast_fp16")];
            tensor<int32, [4]> var_1085_begin_0 = const()[name = tensor<string, []>("op_1085_begin_0"), val = tensor<int32, [4]>([0, 0, 1, 0])];
            tensor<int32, [4]> var_1085_end_0 = const()[name = tensor<string, []>("op_1085_end_0"), val = tensor<int32, [4]>([1, 1, 513, 1027])];
            tensor<bool, [4]> var_1085_end_mask_0 = const()[name = tensor<string, []>("op_1085_end_mask_0"), val = tensor<bool, [4]>([true, true, false, true])];
            tensor<fp16, [1, 1, 512, 1027]> var_1085_cast_fp16 = slice_by_index(begin = var_1085_begin_0, end = var_1085_end_0, end_mask = var_1085_end_mask_0, x = x_has_output_shape_cast_fp16)[name = tensor<string, []>("op_1085_cast_fp16")];
            tensor<int32, [4]> input_349_begin_0 = const()[name = tensor<string, []>("input_349_begin_0"), val = tensor<int32, [4]>([0, 0, 0, 1])];
            tensor<int32, [4]> input_349_end_0 = const()[name = tensor<string, []>("input_349_end_0"), val = tensor<int32, [4]>([1, 1, 512, 1025])];
            tensor<bool, [4]> input_349_end_mask_0 = const()[name = tensor<string, []>("input_349_end_mask_0"), val = tensor<bool, [4]>([true, true, true, false])];
            tensor<fp16, [1, 1, 512, 1024]> input_349_cast_fp16 = slice_by_index(begin = input_349_begin_0, end = input_349_end_0, end_mask = input_349_end_mask_0, x = var_1085_cast_fp16)[name = tensor<string, []>("input_349_cast_fp16")];
            tensor<fp16, [1, 1, 512, 1024]> input_351_cast_fp16 = elu(alpha = var_845_to_fp16, x = input_349_cast_fp16)[name = tensor<string, []>("input_351_cast_fp16")];
            tensor<fp16, [1]> instruments_3_up6_3_running_mean_to_fp16 = const()[name = tensor<string, []>("instruments_3_up6_3_running_mean_to_fp16"), val = tensor<fp16, [1]>([0x0p+0])];
            tensor<fp16, [1]> instruments_3_up6_3_running_var_to_fp16 = const()[name = tensor<string, []>("instruments_3_up6_3_running_var_to_fp16"), val = tensor<fp16, [1]>([0x1p+0])];
            tensor<fp16, [1]> instruments_3_up6_3_weight_to_fp16 = const()[name = tensor<string, []>("instruments_3_up6_3_weight_to_fp16"), val = tensor<fp16, [1]>([0x1.354p-5])];
            tensor<fp16, [1]> instruments_3_up6_3_bias_to_fp16 = const()[name = tensor<string, []>("instruments_3_up6_3_bias_to_fp16"), val = tensor<fp16, [1]>([-0x1.83cp+0])];
            tensor<fp16, [1, 1, 512, 1024]> input_cast_fp16 = batch_norm(beta = instruments_3_up6_3_bias_to_fp16, epsilon = var_843_to_fp16, gamma = instruments_3_up6_3_weight_to_fp16, mean = instruments_3_up6_3_running_mean_to_fp16, variance = instruments_3_up6_3_running_var_to_fp16, x = input_351_cast_fp16)[name = tensor<string, []>("input_cast_fp16")];
            tensor<string, []> u7_13_pad_type_0 = const()[name = tensor<string, []>("u7_13_pad_type_0"), val = tensor<string, []>("custom")];
            tensor<int32, [4]> u7_13_pad_0 = const()[name = tensor<string, []>("u7_13_pad_0"), val = tensor<int32, [4]>([3, 3, 3, 3])];
            tensor<int32, [2]> u7_13_dilations_0 = const()[name = tensor<string, []>("u7_13_dilations_0"), val = tensor<int32, [2]>([2, 2])];
            tensor<int32, [2]> u7_13_strides_0 = const()[name = tensor<string, []>("u7_13_strides_0"), val = tensor<int32, [2]>([1, 1])];
            tensor<int32, []> u7_13_groups_0 = const()[name = tensor<string, []>("u7_13_groups_0"), val = tensor<int32, []>(1)];
            tensor<fp16, [2, 1, 4, 4]> instruments_3_up7_0_weight_to_fp16 = const()[name = tensor<string, []>("instruments_3_up7_0_weight_to_fp16"), val = tensor<fp16, [2, 1, 4, 4]>(BLOBFILE(path = tensor<string, []>("@model_path/weights/weight.bin"), offset = tensor<uint64, []>(78602688)))];
            tensor<fp16, [2]> instruments_3_up7_0_bias_to_fp16 = const()[name = tensor<string, []>("instruments_3_up7_0_bias_to_fp16"), val = tensor<fp16, [2]>([0x1.604p-1, 0x1.56cp-1])];
            tensor<fp16, [1, 2, 512, 1024]> u7_13_cast_fp16 = conv(bias = instruments_3_up7_0_bias_to_fp16, dilations = u7_13_dilations_0, groups = u7_13_groups_0, pad = u7_13_pad_0, pad_type = u7_13_pad_type_0, strides = u7_13_strides_0, weight = instruments_3_up7_0_weight_to_fp16, x = input_cast_fp16)[name = tensor<string, []>("u7_13_cast_fp16")];
            tensor<fp16, [1, 2, 512, 1024]> u7_cast_fp16 = sigmoid(x = u7_13_cast_fp16)[name = tensor<string, []>("u7_cast_fp16")];
            tensor<fp16, [1, 2, 512, 1024]> var_1102_cast_fp16 = mul(x = u7_cast_fp16, y = input_1_cast_fp16)[name = tensor<string, []>("op_1102_cast_fp16")];
            tensor<fp16, []> var_1103_promoted_to_fp16 = const()[name = tensor<string, []>("op_1103_promoted_to_fp16"), val = tensor<fp16, []>(0x1p+1)];
            tensor<fp16, [1, 2, 512, 1024]> var_1104_cast_fp16 = pow(x = var_310_cast_fp16, y = var_1103_promoted_to_fp16)[name = tensor<string, []>("op_1104_cast_fp16")];
            tensor<fp16, []> var_1105_promoted_to_fp16 = const()[name = tensor<string, []>("op_1105_promoted_to_fp16"), val = tensor<fp16, []>(0x1p+1)];
            tensor<fp16, [1, 2, 512, 1024]> var_1106_cast_fp16 = pow(x = var_574_cast_fp16, y = var_1105_promoted_to_fp16)[name = tensor<string, []>("op_1106_cast_fp16")];
            tensor<fp16, []> var_1107_promoted_to_fp16 = const()[name = tensor<string, []>("op_1107_promoted_to_fp16"), val = tensor<fp16, []>(0x1p+1)];
            tensor<fp16, [1, 2, 512, 1024]> var_1108_cast_fp16 = pow(x = var_838_cast_fp16, y = var_1107_promoted_to_fp16)[name = tensor<string, []>("op_1108_cast_fp16")];
            tensor<fp16, []> var_1109_promoted_to_fp16 = const()[name = tensor<string, []>("op_1109_promoted_to_fp16"), val = tensor<fp16, []>(0x1p+1)];
            tensor<fp16, [1, 2, 512, 1024]> var_1110_cast_fp16 = pow(x = var_1102_cast_fp16, y = var_1109_promoted_to_fp16)[name = tensor<string, []>("op_1110_cast_fp16")];
            tensor<fp16, [1, 2, 512, 1024]> var_1115_cast_fp16 = add(x = var_1104_cast_fp16, y = var_1106_cast_fp16)[name = tensor<string, []>("op_1115_cast_fp16")];
            tensor<fp16, [1, 2, 512, 1024]> var_1117_cast_fp16 = add(x = var_1115_cast_fp16, y = var_1108_cast_fp16)[name = tensor<string, []>("op_1117_cast_fp16")];
            tensor<fp16, [1, 2, 512, 1024]> mask_sum_1_cast_fp16 = add(x = var_1117_cast_fp16, y = var_1110_cast_fp16)[name = tensor<string, []>("mask_sum_1_cast_fp16")];
            tensor<fp16, []> var_1120_to_fp16 = const()[name = tensor<string, []>("op_1120_to_fp16"), val = tensor<fp16, []>(0x1p-24)];
            tensor<fp16, [1, 2, 512, 1024]> mask_sum_cast_fp16 = add(x = mask_sum_1_cast_fp16, y = var_1120_to_fp16)[name = tensor<string, []>("mask_sum_cast_fp16")];
            tensor<fp16, []> var_1126_to_fp16 = const()[name = tensor<string, []>("op_1126_to_fp16"), val = tensor<fp16, []>(0x1p-24)];
            tensor<fp16, [1, 2, 512, 1024]> var_1127_cast_fp16 = add(x = var_1104_cast_fp16, y = var_1126_to_fp16)[name = tensor<string, []>("op_1127_cast_fp16")];
            tensor<fp16, [1, 2, 512, 1024]> mask_1_cast_fp16 = real_div(x = var_1127_cast_fp16, y = mask_sum_cast_fp16)[name = tensor<string, []>("mask_1_cast_fp16")];
            tensor<int32, [4]> var_1131_perm_0 = const()[name = tensor<string, []>("op_1131_perm_0"), val = tensor<int32, [4]>([0, 1, 3, 2])];
            tensor<int32, []> var_1137 = const()[name = tensor<string, []>("op_1137"), val = tensor<int32, []>(3)];
            tensor<bool, []> mask_3_interleave_0 = const()[name = tensor<string, []>("mask_3_interleave_0"), val = tensor<bool, []>(false)];
            tensor<fp16, [1, 2, 1024, 512]> var_1131_cast_fp16 = transpose(perm = var_1131_perm_0, x = mask_1_cast_fp16)[name = tensor<string, []>("transpose_3")];
            tensor<fp16, [1, 2, 1024, 512]> mask_3_cast_fp16 = concat(axis = var_1137, interleave = mask_3_interleave_0, values = var_1131_cast_fp16)[name = tensor<string, []>("mask_3_cast_fp16")];
            tensor<int32, [1]> var_1140_axes_0 = const()[name = tensor<string, []>("op_1140_axes_0"), val = tensor<int32, [1]>([0])];
            tensor<fp16, [2, 1024, 512]> var_1140_cast_fp16 = squeeze(axes = var_1140_axes_0, x = mask_3_cast_fp16)[name = tensor<string, []>("op_1140_cast_fp16")];
            tensor<int32, [3]> var_1154_begin_0 = const()[name = tensor<string, []>("op_1154_begin_0"), val = tensor<int32, [3]>([0, 0, 0])];
            tensor<int32, [3]> var_1154_end_0 = const()[name = tensor<string, []>("op_1154_end_0"), val = tensor<int32, [3]>([2, 1024, 216])];
            tensor<bool, [3]> var_1154_end_mask_0 = const()[name = tensor<string, []>("op_1154_end_mask_0"), val = tensor<bool, [3]>([true, true, false])];
            tensor<fp16, [2, 1024, 216]> var_1154_cast_fp16 = slice_by_index(begin = var_1154_begin_0, end = var_1154_end_0, end_mask = var_1154_end_mask_0, x = var_1140_cast_fp16)[name = tensor<string, []>("op_1154_cast_fp16")];
            tensor<int32, [1]> var_1156_axes_0 = const()[name = tensor<string, []>("op_1156_axes_0"), val = tensor<int32, [1]>([-1])];
            tensor<fp16, [2, 1024, 216, 1]> var_1156_cast_fp16 = expand_dims(axes = var_1156_axes_0, x = var_1154_cast_fp16)[name = tensor<string, []>("op_1156_cast_fp16")];
            tensor<string, []> var_1156_cast_fp16_to_fp32_dtype_0 = const()[name = tensor<string, []>("op_1156_cast_fp16_to_fp32_dtype_0"), val = tensor<string, []>("fp32")];
            tensor<fp16, []> var_1160_to_fp16 = const()[name = tensor<string, []>("op_1160_to_fp16"), val = tensor<fp16, []>(0x1p-24)];
            tensor<fp16, [1, 2, 512, 1024]> var_1161_cast_fp16 = add(x = var_1106_cast_fp16, y = var_1160_to_fp16)[name = tensor<string, []>("op_1161_cast_fp16")];
            tensor<fp16, [1, 2, 512, 1024]> mask_5_cast_fp16 = real_div(x = var_1161_cast_fp16, y = mask_sum_cast_fp16)[name = tensor<string, []>("mask_5_cast_fp16")];
            tensor<int32, [4]> var_1165_perm_0 = const()[name = tensor<string, []>("op_1165_perm_0"), val = tensor<int32, [4]>([0, 1, 3, 2])];
            tensor<int32, []> var_1171 = const()[name = tensor<string, []>("op_1171"), val = tensor<int32, []>(3)];
            tensor<bool, []> mask_7_interleave_0 = const()[name = tensor<string, []>("mask_7_interleave_0"), val = tensor<bool, []>(false)];
            tensor<fp16, [1, 2, 1024, 512]> var_1165_cast_fp16 = transpose(perm = var_1165_perm_0, x = mask_5_cast_fp16)[name = tensor<string, []>("transpose_2")];
            tensor<fp16, [1, 2, 1024, 512]> mask_7_cast_fp16 = concat(axis = var_1171, interleave = mask_7_interleave_0, values = var_1165_cast_fp16)[name = tensor<string, []>("mask_7_cast_fp16")];
            tensor<int32, [1]> var_1174_axes_0 = const()[name = tensor<string, []>("op_1174_axes_0"), val = tensor<int32, [1]>([0])];
            tensor<fp16, [2, 1024, 512]> var_1174_cast_fp16 = squeeze(axes = var_1174_axes_0, x = mask_7_cast_fp16)[name = tensor<string, []>("op_1174_cast_fp16")];
            tensor<int32, [3]> var_1188_begin_0 = const()[name = tensor<string, []>("op_1188_begin_0"), val = tensor<int32, [3]>([0, 0, 0])];
            tensor<int32, [3]> var_1188_end_0 = const()[name = tensor<string, []>("op_1188_end_0"), val = tensor<int32, [3]>([2, 1024, 216])];
            tensor<bool, [3]> var_1188_end_mask_0 = const()[name = tensor<string, []>("op_1188_end_mask_0"), val = tensor<bool, [3]>([true, true, false])];
            tensor<fp16, [2, 1024, 216]> var_1188_cast_fp16 = slice_by_index(begin = var_1188_begin_0, end = var_1188_end_0, end_mask = var_1188_end_mask_0, x = var_1174_cast_fp16)[name = tensor<string, []>("op_1188_cast_fp16")];
            tensor<int32, [1]> var_1190_axes_0 = const()[name = tensor<string, []>("op_1190_axes_0"), val = tensor<int32, [1]>([-1])];
            tensor<fp16, [2, 1024, 216, 1]> var_1190_cast_fp16 = expand_dims(axes = var_1190_axes_0, x = var_1188_cast_fp16)[name = tensor<string, []>("op_1190_cast_fp16")];
            tensor<string, []> var_1190_cast_fp16_to_fp32_dtype_0 = const()[name = tensor<string, []>("op_1190_cast_fp16_to_fp32_dtype_0"), val = tensor<string, []>("fp32")];
            tensor<fp16, []> var_1194_to_fp16 = const()[name = tensor<string, []>("op_1194_to_fp16"), val = tensor<fp16, []>(0x1p-24)];
            tensor<fp16, [1, 2, 512, 1024]> var_1195_cast_fp16 = add(x = var_1108_cast_fp16, y = var_1194_to_fp16)[name = tensor<string, []>("op_1195_cast_fp16")];
            tensor<fp16, [1, 2, 512, 1024]> mask_9_cast_fp16 = real_div(x = var_1195_cast_fp16, y = mask_sum_cast_fp16)[name = tensor<string, []>("mask_9_cast_fp16")];
            tensor<int32, [4]> var_1199_perm_0 = const()[name = tensor<string, []>("op_1199_perm_0"), val = tensor<int32, [4]>([0, 1, 3, 2])];
            tensor<int32, []> var_1205 = const()[name = tensor<string, []>("op_1205"), val = tensor<int32, []>(3)];
            tensor<bool, []> mask_11_interleave_0 = const()[name = tensor<string, []>("mask_11_interleave_0"), val = tensor<bool, []>(false)];
            tensor<fp16, [1, 2, 1024, 512]> var_1199_cast_fp16 = transpose(perm = var_1199_perm_0, x = mask_9_cast_fp16)[name = tensor<string, []>("transpose_1")];
            tensor<fp16, [1, 2, 1024, 512]> mask_11_cast_fp16 = concat(axis = var_1205, interleave = mask_11_interleave_0, values = var_1199_cast_fp16)[name = tensor<string, []>("mask_11_cast_fp16")];
            tensor<int32, [1]> var_1208_axes_0 = const()[name = tensor<string, []>("op_1208_axes_0"), val = tensor<int32, [1]>([0])];
            tensor<fp16, [2, 1024, 512]> var_1208_cast_fp16 = squeeze(axes = var_1208_axes_0, x = mask_11_cast_fp16)[name = tensor<string, []>("op_1208_cast_fp16")];
            tensor<int32, [3]> var_1222_begin_0 = const()[name = tensor<string, []>("op_1222_begin_0"), val = tensor<int32, [3]>([0, 0, 0])];
            tensor<int32, [3]> var_1222_end_0 = const()[name = tensor<string, []>("op_1222_end_0"), val = tensor<int32, [3]>([2, 1024, 216])];
            tensor<bool, [3]> var_1222_end_mask_0 = const()[name = tensor<string, []>("op_1222_end_mask_0"), val = tensor<bool, [3]>([true, true, false])];
            tensor<fp16, [2, 1024, 216]> var_1222_cast_fp16 = slice_by_index(begin = var_1222_begin_0, end = var_1222_end_0, end_mask = var_1222_end_mask_0, x = var_1208_cast_fp16)[name = tensor<string, []>("op_1222_cast_fp16")];
            tensor<int32, [1]> var_1224_axes_0 = const()[name = tensor<string, []>("op_1224_axes_0"), val = tensor<int32, [1]>([-1])];
            tensor<fp16, [2, 1024, 216, 1]> var_1224_cast_fp16 = expand_dims(axes = var_1224_axes_0, x = var_1222_cast_fp16)[name = tensor<string, []>("op_1224_cast_fp16")];
            tensor<string, []> var_1224_cast_fp16_to_fp32_dtype_0 = const()[name = tensor<string, []>("op_1224_cast_fp16_to_fp32_dtype_0"), val = tensor<string, []>("fp32")];
            tensor<fp16, []> var_1228_to_fp16 = const()[name = tensor<string, []>("op_1228_to_fp16"), val = tensor<fp16, []>(0x1p-24)];
            tensor<fp16, [1, 2, 512, 1024]> var_1229_cast_fp16 = add(x = var_1110_cast_fp16, y = var_1228_to_fp16)[name = tensor<string, []>("op_1229_cast_fp16")];
            tensor<fp16, [1, 2, 512, 1024]> mask_13_cast_fp16 = real_div(x = var_1229_cast_fp16, y = mask_sum_cast_fp16)[name = tensor<string, []>("mask_13_cast_fp16")];
            tensor<int32, [4]> var_1233_perm_0 = const()[name = tensor<string, []>("op_1233_perm_0"), val = tensor<int32, [4]>([0, 1, 3, 2])];
            tensor<int32, []> var_1239 = const()[name = tensor<string, []>("op_1239"), val = tensor<int32, []>(3)];
            tensor<bool, []> mask_interleave_0 = const()[name = tensor<string, []>("mask_interleave_0"), val = tensor<bool, []>(false)];
            tensor<fp16, [1, 2, 1024, 512]> var_1233_cast_fp16 = transpose(perm = var_1233_perm_0, x = mask_13_cast_fp16)[name = tensor<string, []>("transpose_0")];
            tensor<fp16, [1, 2, 1024, 512]> mask_cast_fp16 = concat(axis = var_1239, interleave = mask_interleave_0, values = var_1233_cast_fp16)[name = tensor<string, []>("mask_cast_fp16")];
            tensor<int32, [1]> var_1242_axes_0 = const()[name = tensor<string, []>("op_1242_axes_0"), val = tensor<int32, [1]>([0])];
            tensor<fp16, [2, 1024, 512]> var_1242_cast_fp16 = squeeze(axes = var_1242_axes_0, x = mask_cast_fp16)[name = tensor<string, []>("op_1242_cast_fp16")];
            tensor<int32, [3]> var_1256_begin_0 = const()[name = tensor<string, []>("op_1256_begin_0"), val = tensor<int32, [3]>([0, 0, 0])];
            tensor<int32, [3]> var_1256_end_0 = const()[name = tensor<string, []>("op_1256_end_0"), val = tensor<int32, [3]>([2, 1024, 216])];
            tensor<bool, [3]> var_1256_end_mask_0 = const()[name = tensor<string, []>("op_1256_end_mask_0"), val = tensor<bool, [3]>([true, true, false])];
            tensor<fp16, [2, 1024, 216]> var_1256_cast_fp16 = slice_by_index(begin = var_1256_begin_0, end = var_1256_end_0, end_mask = var_1256_end_mask_0, x = var_1242_cast_fp16)[name = tensor<string, []>("op_1256_cast_fp16")];
            tensor<int32, [1]> var_1258_axes_0 = const()[name = tensor<string, []>("op_1258_axes_0"), val = tensor<int32, [1]>([-1])];
            tensor<fp16, [2, 1024, 216, 1]> var_1258_cast_fp16 = expand_dims(axes = var_1258_axes_0, x = var_1256_cast_fp16)[name = tensor<string, []>("op_1258_cast_fp16")];
            tensor<string, []> var_1258_cast_fp16_to_fp32_dtype_0 = const()[name = tensor<string, []>("op_1258_cast_fp16_to_fp32_dtype_0"), val = tensor<string, []>("fp32")];
            tensor<fp32, [2, 1024, 216, 1]> otherMask = cast(dtype = var_1258_cast_fp16_to_fp32_dtype_0, x = var_1258_cast_fp16)[name = tensor<string, []>("cast_8")];
            tensor<fp32, [2, 1024, 216, 1]> bassMask = cast(dtype = var_1224_cast_fp16_to_fp32_dtype_0, x = var_1224_cast_fp16)[name = tensor<string, []>("cast_9")];
            tensor<fp32, [2, 1024, 216, 1]> drumsMask = cast(dtype = var_1190_cast_fp16_to_fp32_dtype_0, x = var_1190_cast_fp16)[name = tensor<string, []>("cast_10")];
            tensor<fp32, [2, 1024, 216, 1]> vocalsMask = cast(dtype = var_1156_cast_fp16_to_fp32_dtype_0, x = var_1156_cast_fp16)[name = tensor<string, []>("cast_11")];
        } -> (vocalsMask, drumsMask, bassMask, otherMask);
}